nextitnet.pth (torch, 382608 bytes, 21 tensors)

user_emb.weight f4 [943, 32]
0	0x3e380d8f	0.17973922
1	0xbcf76943	-0.03020156
2	0x3e3c84fa	0.18410102
3	0x3c777c34	0.015105296
4	0x3d78fc3f	0.060787436
5	0x3cb10b4a	0.021611828
6	0xbd9cd923	-0.07658603
7	0xbdfe80dd	-0.124269225
8	0x3d1145b4	0.035466865
9	0xbc0366e6	-0.008020138
10	0xbde4e093	-0.11175647
11	0xbe99fff9	-0.30078104
12	0x3e1020b7	0.1407498
13	0x3e1c518a	0.1526548
14	0x3dba8fd4	0.09109464
15	0x3d5b6a33	0.053568076
16	0x3e61dcaf	0.2205684
17	0xbd88e69d	-0.06684611
18	0x3b58b294	0.0033065425
19	0x3db54ad1	0.08852161
20	0x3e62587d	0.22104068
21	0xbc8e5403	-0.017374044
22	0x3dfba27a	0.12286849
23	0xbe3ef882	-0.18649486
24	0xbdf1accf	-0.11800539
25	0xbdcca096	-0.09991567
26	0xbcf8dcd7	-0.030378742
27	0x3e0610e3	0.1309238
28	0x3e15c682	0.14626506
29	0x3e1368d2	0.14395455
30	0x3cda03ca	0.026613135
31	0xbd297c68	-0.04137841
32	0xbd4a00c0	-0.04931712
33	0xbdcb6435	-0.09931222
34	0x3e174c33	0.14775161
35	0x3d25326d	0.040331293
36	0xbe3863c0	-0.18006802
37	0x3cc26cf7	0.0237336
38	0x3e07b3cf	0.13252185
39	0x3de90858	0.113785446
40	0x3dad2c08	0.08455664
41	0x3d943667	0.07236939
42	0x3c2241ab	0.009903352
43	0xbcdc04bf	-0.026857732
44	0x3e16ca3a	0.14725581
45	0xbddb4e35	-0.10708276
46	0x3e9a690b	0.30158266
47	0xbe10617a	-0.14099684
48	0x3e0bf408	0.1366731
49	0x3da5bfd2	0.080932274
50	0xbeb35b94	-0.35030806
51	0x39378d86	0.00017504962
52	0x3e30e4a8	0.17274725
53	0xbcbd9461	-0.023142042
54	0xbe8432c6	-0.25819987
55	0xbe665f0f	-0.224972
56	0x3d70208a	0.05862478
57	0x3e059d3f	0.13048266
58	0x3c1a7f71	0.009429798
59	0x3e94b414	0.2904364
60	0xbd74535d	-0.059649814
61	0x3cd36cdd	0.025808746
62	0x3d35bf5d	0.04437195
63	0x3e004733	0.1252716
64	0xbe5f4cf3	-0.21806698
65	0x3e624dbe	0.22099969
66	0xbe359541	-0.17732717
67	0xbe83760d	-0.25676003
68	0x3d61c441	0.055118803
69	0x3bc1bbe9	0.005912293
70	0xbdf8730b	-0.12131318
71	0xbcb88258	-0.02252309
72	0x3e700364	0.23438793
73	0xbe98a601	-0.2981415
74	0x3e0ebb9a	0.13938752
75	0xbe7a5252	-0.24445465
76	0x3e382ca0	0.17985773
77	0x3dc1abb2	0.094565764
78	0x3e8725c8	0.26396012
79	0xbdcde118	-0.10052699
80	0x3e224497	0.15846477
81	0x3c765f76	0.015037408
82	0xbd778550	-0.06042987
83	0xbe15fb0b	-0.14646547
84	0x3d95d084	0.07315162
85	0xbdd55bef	-0.104179256
86	0xbf01b5a4	-0.50667787
87	0x3dad214d	0.08453617
88	0x3df74eda	0.120755866
89	0x3ecd2682	0.40068442
90	0xbd1fedbe	-0.039045088
91	0xbd3a41e2	-0.045472987
92	0xbe4d7cf9	-0.20067205
93	0xbdb72334	-0.08942261
94	0x3ec71f1d	0.38890925
95	0x3cf205ca	0.029543776
96	0x3ea3f0e5	0.32019725
97	0xbddcf335	-0.107885756
98	0x3ea67604	0.32511914
99	0x3e89c01f	0.2690439
100	0x3e71f1f6	0.23627457
101	0xbe9d77a1	-0.30755332
102	0xbdf091db	-0.1174657
103	0x3db57389	0.08859927
104	0xbd356361	-0.04428423
105	0x3d930ca5	0.07180146
106	0xbc6947ff	-0.014238357
107	0x3d7bc48e	0.061466746
108	0x3d4cc88c	0.049995944
109	0xbca24208	-0.019806877
110	0xbd0518e9	-0.03249446
111	0x3e6e5e9b	0.23278277
112	0xbe8cfe7c	-0.27537906
113	0x3e919bc0	0.2843914
114	0x393c11a9	0.00017935656
115	0x3e84bf9b	0.25927433
116	0xbef2e5cf	-0.47440955
117	0x3ed91d3a	0.4240511
118	0xbeb4d38b	-0.35317644
119	0xbac1c995	-0.0014784808
120	0x3d45fd36	0.048337184
121	0xbecaaa2b	-0.39582953
122	0xbae6c490	-0.0017606188
123	0xbe9eaf31	-0.30993035
124	0x3e310ad5	0.17289288
125	0xbd3fd9f8	-0.04683873
126	0xb895fa6e	-7.15152e-05
127	0x3da04acc	0.07826766
128	0xbe43b600	-0.19112396
129	0xbd277b4c	-0.04088907
130	0xbd3c5ab6	-0.045984946
131	0xbe8ce0ab	-0.27515158
132	0x3cb03fc9	0.02151479
133	0x3e395363	0.18098216
134	0xbe440029	-0.19140686
135	0xbb164647	-0.0022930072
136	0xbc62b84d	-0.013837886
137	0x3dec0463	0.11524274
138	0xbde5b557	-0.112162285
139	0x3d020bff	0.03174972
140	0x3dfedf3d	0.12444923
141	0x3dc876cd	0.097882845
142	0xbda2bd7b	-0.07946297
143	0x3e25a8f1	0.16177727
144	0x3c2b733f	0.0104644885
145	0xbde5a663	-0.112133764
146	0x3e4aad47	0.19792663
147	0xbce3f01f	-0.02782446
148	0x3e167a38	0.1469506
149	0xbcb2c39f	-0.021821795
150	0xbd704b03	-0.058665287
151	0x3d913c37	0.07091563
152	0x3e28b849	0.16476549
153	0xbe85ec51	-0.26156858
154	0x3d121921	0.035668496
155	0xbd99ca78	-0.07509321
156	0xbd04d144	-0.032426134
157	0xbcfb836f	-0.03070232
158	0xbd47dce7	-0.048794653
159	0x3d5d84ec	0.054081842
160	0xbd4ac311	-0.049502436
161	0x3e8767e0	0.26446438
162	0x3e80db9e	0.25167555
163	0xbd89b941	-0.067247875
164	0x3d80d129	0.06289894
165	0xbda59fdb	-0.08087131
166	0x3cb3ebdf	0.021963058
167	0x3e54651f	0.207417
168	0xbc1e7482	-0.009671332
169	0xbc001e2e	-0.007819695
170	0xbe13d3df	-0.14436291
171	0xbed28b3a	-0.41121846
172	0xbdbd33d4	-0.09238401
173	0x3ceac147	0.028656615
174	0x3ea90cc6	0.33017558
175	0x3b550524	0.0032504285
176	0x3dc77246	0.09738593
177	0x3ef67486	0.48135775
178	0xbe09ac22	-0.1344457
179	0x3df3adda	0.11898394
180	0xbda8b8bb	-0.082383595
181	0xbc1696dd	-0.009191242
182	0x3e3563fa	0.1771392
183	0xbcb9215e	-0.022598919
184	0x3d2ee8ed	0.042702604
185	0xbeb8f062	-0.36120898
186	0x3db4ac1b	0.08821889
187	0x3e85f49b	0.26163182
188	0x3e6825d1	0.22670676
189	0xbe738290	-0.23780274
190	0x3d9ddec5	0.077085055
191	0x3d309baa	0.043117203
192	0xbe7333f6	-0.2375029
193	0xbd10e7bd	-0.035377253
194	0xbb390555	-0.0028231938
195	0x3eb0fe73	0.3456913
196	0xbe988bc8	-0.29794145
197	0x3e9480cd	0.29004517
198	0xbe8091e5	-0.2511131
199	0xbbac14f5	-0.0052515217
200	0x3e80afa8	0.25134015
201	0x3d2124c0	0.03934169
202	0x3dd17bb1	0.102286704
203	0xbe0a74d6	-0.13521132
204	0x3c5c29ec	0.013437729
205	0x3da26230	0.07928884
206	0x3dbf3c2d	0.093376495
207	0xbe1d9390	-0.15388322
208	0xbdd33dff	-0.10314559
209	0xbd7f4fe2	-0.06233204
210	0x3c89b741	0.016811015
211	0xbdb7a3a9	-0.089667626
212	0xbe2628c9	-0.16226496
213	0x3e4dfaa8	0.20115149
214	0xbe9d36d0	-0.3070588
215	0x3de1b6a8	0.11021167
216	0x3b8e73fe	0.0043473234
217	0xbdc0c3ba	-0.09412332
218	0x3c76c84a	0.015062401
219	0x3e2b9336	0.16755375
220	0xbebc940e	-0.36831707
221	0x3dc07129	0.093965836
222	0x3e0b8400	0.13624573
223	0x3e489bd0	0.19590688
224	0xbe22d167	-0.15900193
225	0x3dcc4595	0.09974209
226	0xbeb788d3	-0.35846576
227	0xbc0e3d9c	-0.008681681
228	0x3e0cc752	0.1374791
229	0xbcb55fd7	-0.022140427
230	0x3d60c747	0.054877546
231	0x3da740aa	0.081666306
232	0x3dcd97ac	0.10038695
233	0xbdbb6d42	-0.09151699
234	0xbd4ccd57	-0.050000515
235	0xbe85b7fa	-0.26116925
236	0xbd869fe6	-0.06573467
237	0x3d4c7be7	0.04992285
238	0x3e3cc029	0.18432678
239	0x3e5a3400	0.21308899
240	0x3d632508	0.055455238
241	0xbdcf06dd	-0.10108731
242	0x3cb7747d	0.022394413
243	0x3c4a5d91	0.0123514095
244	0x3e04471d	0.12917753
245	0xbe76f533	-0.24116974
246	0xbd9f53fc	-0.077796906
247	0xbe22e0e5	-0.15906103
248	0xbdacca53	-0.08437028
249	0x3e7e5c27	0.24839841
250	0x3e429aaf	0.1900432
251	0xbeb3e177	-0.35132954
252	0xbdc195e8	-0.094524205
253	0x3ed1e39f	0.40993974
254	0x3da1e5e2	0.07905175
255	0xbda88995	-0.08229367

item_emb.weight f4 [1682, 32]
0	0x3e885a81	0.2663155
1	0x3e0499b9	0.12949266
2	0x3f0c730d	0.54863054
3	0xbe57bc50	-0.2106793
4	0xbe81955e	-0.2530927
5	0xbe0c978b	-0.13729684
6	0xbcb9b2e0	-0.022668302
7	0x3cf36952	0.029713307
8	0x3ca76ee4	0.020438619
9	0xbe0df76f	-0.1386392
10	0x3d6b4c83	0.057446014
11	0xbec66001	-0.3874512
12	0x3c9ea0a5	0.01936371
13	0x3e2ed7df	0.17074536
14	0xbb964c8d	-0.0045867623
15	0x3e651a3a	0.22373286
16	0x3dd7e2f7	0.10541337
17	0x3e6908a9	0.2275721
18	0x3d297757	0.041373577
19	0xbd801b03	-0.06255152
20	0x3e3b6072	0.1829851
21	0xbe0f274b	-0.13979833
22	0xbe0c5df4	-0.13707715
23	0xbd997800	-0.07493591
24	0x3d655300	0.055987358
25	0x3e850d07	0.25986502
26	0xbe00d40f	-0.12580894
27	0x3ebc9c62	0.3683806
28	0x3edd9850	0.43280268
29	0xbeb7290a	-0.35773498
30	0x3e2f87cc	0.17141646
31	0x3d66a8d6	0.05631336
32	0xbeda3f00	-0.4262619
33	0xbec87fff	-0.39160153
34	0xbf230b14	-0.6368878
35	0xbcefff43	-0.029296523
36	0x3dac8209	0.0842324
37	0xbecd568a	-0.40105087
38	0x3e4e8241	0.20166875
39	0xbee75a9a	-0.4518631
40	0xbdb1c3cd	-0.08679924
41	0xbe0e4eb4	-0.1389721
42	0x3e6228eb	0.22085921
43	0x3eebb243	0.4603444
44	0xbd6db13d	-0.058030356
45	0x3ce79160	0.028267562
46	0xbdcfc63e	-0.101452336
47	0xbe95217f	-0.29127118
48	0x3ed190bb	0.40930733
49	0x3e015cfd	0.12633128
50	0x3cd4d918	0.025982425
51	0x3d8d97be	0.06913708
52	0x3df15866	0.11784439
53	0xbae7881a	-0.0017664463
54	0x3e6f6733	0.23379211
55	0xbcf8e80b	-0.030384084
56	0x3e081a67	0.13291322
57	0x3e9b6075	0.30347028
58	0x3f1d8703	0.61534137
59	0x3eee4678	0.46538138
60	0x3e718358	0.2358526
61	0x3eae85d6	0.34086484
62	0xbf37b4ad	-0.71760064
63	0xbebbc37d	-0.36672583
64	0xbbb58148	-0.005539093
65	0x3c661120	0.014042169
66	0x3ceca9aa	0.028889496
67	0x3c4cb9bb	0.0124954535
68	0xbd6cd923	-0.057824265
69	0xbc90755c	-0.017634086
70	0xbd4f8578	-0.050664395
71	0x3d2e3d91	0.042539183
72	0xbd23f4a8	-0.040028244
73	0x3dc83120	0.09774995
74	0xbd987270	-0.07443702
75	0xbae64d1f	-0.0017570591
76	0x3c7dbe59	0.015487277
77	0x3dce2e91	0.100674756
78	0x3dc6cbd8	0.09706849
79	0x3df96af3	0.12178602
80	0x3cdae932	0.026722524
81	0x3ce5b399	0.02803974
82	0xbc71fd5b	-0.014769877
83	0xbb427898	-0.002967393
84	0xbcdcec24	-0.02696807
85	0xbbbb92fd	-0.0057243095
86	0x3c9df41a	0.019281436
87	0xbca21496	-0.019785207
88	0xbd833111	-0.06405843
89	0x3b13ac09	0.002253296
90	0xbc2941ec	-0.010330658
91	0xbd20a9f3	-0.039224576
92	0xbca75630	-0.02042684
93	0xbc2f9b32	-0.010718154
94	0x3c34d8a4	0.011037979
95	0x39a4fef7	0.0003147048
96	0xbd2a67ac	-0.041602775
97	0xbe2af173	-0.16693668
98	0xbe145349	-0.14484896
99	0xbdd0a386	-0.101874396
100	0xbe70e7af	-0.2352588
101	0xbda93240	-0.082615376
102	0x3d23fb46	0.040034555
103	0xbe35f472	-0.1776903
104	0xbe05a3b5	-0.1305073
105	0x3dad7f1c	0.0847151
106	0xbe2122f8	-0.15735996
107	0x3e43f5a6	0.19136676
108	0x3d37d6b0	0.044882476
109	0x3c8145fe	0.015780445
110	0xbbbddcbb	-0.0057941354
111	0x3cde2a9a	0.027119923
112	0x3e1e3d61	0.15453102
113	0x3de61394	0.11234203
114	0x3df59b7b	0.11992546
115	0x3e85cf9e	0.26134962
116	0xbc56aa80	-0.013102174
117	0x3df677e8	0.12034589
118	0xbdd27b15	-0.10277382
119	0xbdb4ff71	-0.08837784
120	0xbe43383a	-0.19064417
121	0xbda4f440	-0.080543995
122	0x3e30a604	0.1725083
123	0xbe8ed32b	-0.27895483
124	0x3e9411ad	0.28919736
125	0xbde08b13	-0.10964026
126	0x3da08274	0.07837382
127	0xbd8d6552	-0.06904091
128	0xbd275391	-0.04085118
129	0xbd8199db	-0.06328174
130	0x3eb949f7	0.36189243
131	0xbe2392a7	-0.15973912
132	0xbe6e2e63	-0.23259883
133	0xbe4c64b0	-0.19960284
134	0xbda08283	-0.07837393
135	0xbec74fca	-0.38928062
136	0xbd295cc6	-0.04134824
137	0xbe793bd9	-0.24339236
138	0x3d9b1123	0.07571628
139	0xbe907069	-0.28210762
140	0x3b2c23de	0.0026266496
141	0x3e5b54dd	0.21419092
142	0x3c00888e	0.007845057
143	0x3d912a3a	0.07088132
144	0xbe1672f2	-0.14692286
145	0xbced9e81	-0.029006245
146	0x3c79a2d5	0.015236576
147	0x3e125498	0.14290082
148	0x3e254bfd	0.16142268
149	0xbe74a59f	-0.23891304
150	0xbe180243	-0.14844613
151	0x3d08ecee	0.03342908
152	0xbdeb7f03	-0.11498835
153	0xbdad8e09	-0.08474357
154	0xbe082ea0	-0.13299036
155	0x3e2ad9be	0.16684625
156	0x3e57634a	0.2103397
157	0xbbfb6d4c	-0.0076729413
158	0xbd2baffc	-0.04191588
159	0x3ebd94ce	0.3702759
160	0x3e5dfc46	0.21678266
161	0x3ef3a1bb	0.47584328
162	0x3eca0af5	0.39461485
163	0xbdb11f01	-0.08648492
164	0x3eb4c061	0.35303023
165	0x3eeefa45	0.46675315
166	0x3e13d571	0.1443689
167	0xbde2b5d2	-0.11069836
168	0x3d9ce047	0.07659965
169	0xbe7e22c0	-0.24817944
170	0x3f13c7cc	0.5772674
171	0xbe8ee506	-0.27909106
172	0xbe059df5	-0.13048537
173	0x3e1d51bb	0.15363209
174	0xbe47c418	-0.19508398
175	0x3e03fc50	0.12889218
176	0x3d217a6d	0.039423395
177	0xbdd754e3	-0.10514238
178	0xbead0180	-0.33790207
179	0xbe2b480b	-0.16726701
180	0xbd15e43c	-0.036594614
181	0xbe6614bb	-0.22468846
182	0x3eb4d81a	0.35321122
183	0x3e2dae6f	0.16961072
184	0x3de1bc11	0.11022199
185	0xbe8a6f21	-0.2703791
186	0x3e982761	0.29717544
187	0xbe681387	-0.22663699
188	0x3d5e701e	0.054306142
189	0xbebc05c4	-0.3672315
190	0x3e3ace3a	0.18242732
191	0xbeec4f82	-0.4615441
192	0xbca8643d	-0.02055561
193	0x3e2eed83	0.17082791
194	0x3eeee731	0.4666076
195	0x3e5f7999	0.2182373
196	0xbe828c77	-0.2549779
197	0xbd2784a3	-0.040897977
198	0xbe893a09	-0.2680209
199	0xbebc92d6	-0.36830777
200	0xbbdc7ad0	-0.0067285076
201	0xbda11651	-0.07865585
202	0xbe2ace15	-0.16680177
203	0x3db11c26	0.08647947
204	0xbdf10411	-0.11768354
205	0xbd530f2c	-0.05152814
206	0xbe12f6c8	-0.14351952
207	0x3dff3401	0.12461091
208	0xbd634964	-0.055489913
209	0x3efc39e0	0.49262905
210	0xbe50d97d	-0.20395465
211	0x3d515972	0.051110692
212	0xbdc5f061	-0.09664989
213	0x3dd539b4	0.104113966
214	0x3e267972	0.16257265
215	0x3bffd9e6	0.007807958
216	0xbe35ba4d	-0.1774685
217	0x3d1b79db	0.037958007
218	0xbf19b5e7	-0.60043186
219	0xbe8ab7ce	-0.27093357
220	0x3e950edb	0.29112896
221	0x3ee19ab2	0.44063336
222	0x3deec7b0	0.11659181
223	0xbe021f8a	-0.12707344
224	0xbd80830c	-0.06274995
225	0xbd347a2a	-0.044061817
226	0x3d6a52e0	0.057207942
227	0x3d8df93b	0.069323026
228	0xbe46565a	-0.19368878
229	0x3cf98425	0.03045852
230	0xbdacdce5	-0.0844057
231	0x3d60d45b	0.054890018
232	0xbd5ea5ec	-0.054357454
233	0x3d928f76	0.07156269
234	0xbe302928	-0.172032
235	0xbdcb17bf	-0.099166386
236	0x3bde7f75	0.0067900964
237	0x3e2ea8fe	0.17056653
238	0xbdaf996b	-0.08574184
239	0x3e705e74	0.23473531
240	0xbd4e1343	-0.05031134
241	0xbe60ea85	-0.21964462
242	0x3c96bae9	0.018399673
243	0x3e28e3f6	0.1649321
244	0xbd712a98	-0.05887851
245	0xbbb1ff80	-0.0054320693
246	0xbe0eb73a	-0.13937083
247	0xbdb7d67f	-0.08976459
248	0x3b1f36ca	0.0024294131
249	0x3e810498	0.25198817
250	0x3ce81a51	0.028332861
251	0xbe953590	-0.29142427
252	0x3df39061	0.118927725
253	0x3da1eb9c	0.07906267
254	0x3dd0e7f2	0.1020049
255	0x3e4f9412	0.20271328

blocks.0.0.weight f4 [32, 32, 3]
0	0x800e413e	-1.309101e-39
1	0xbe8349d2	-0.25642258
2	0x00ddb178	2.0359308e-38
3	0x8034b815	-4.841482e-39
4	0x3e978351	0.29592374
5	0x0024181c	3.314727e-39
6	0x004ccbbe	7.052587e-39
7	0x3dc7b847	0.09751945
8	0x003fd0c7	5.860531e-39
9	0x802d7d5b	-4.177566e-39
10	0xbe074fff	-0.1321411
11	0x801e0c76	-2.759535e-39
12	0x801791ff	-2.16459e-39
13	0x3e9ced9a	0.30650026
14	0x0033c745	4.755095e-39
15	0x80348107	-4.821732e-39
16	0xbe9f8972	-0.3115955
17	0x8028433c	-3.697539e-39
18	0x8001e458	-1.7375e-40
19	0xbd36ea7b	-0.04465721
20	0x000f123f	1.384078e-39
21	0x003918e6	5.243555e-39
22	0xbdaec29c	-0.085332125
23	0x002fd49c	4.392538e-39
24	0x0043271c	6.167008e-39
25	0x3e66f488	0.22554219
26	0x8145a65c	-3.6302542e-38
27	0x002b74b5	3.990793e-39
28	0x3dfd3b60	0.123648405
29	0x8012ef4b	-1.738881e-39
30	0x8038aeae	-5.205451e-39
31	0x3dfd528f	0.123692624
32	0x000c557f	1.132696e-39
33	0x801a3ddf	-2.409918e-39
34	0x3e8aac34	0.27084506
35	0x00275922	3.613559e-39
36	0x80055178	-4.88403e-40
37	0x3dd87033	0.10568275
38	0x0017839b	2.159428e-39
39	0x8012b6fa	-1.718679e-39
40	0xbe32aade	-0.17447993
41	0x001cd340	2.647176e-39
42	0x000b5777	1.041567e-39
43	0xbe54d17c	-0.20783037
44	0x0008ef7d	8.20596e-40
45	0x0018bf99	2.272784e-39
46	0x3d2771ad	0.040879894
47	0x8020b02a	-3.001932e-39
48	0x002ba965	4.009694e-39
49	0x3da2a028	0.07940704
50	0x8016c5f9	-2.0914e-39
51	0x01a5e831	6.0944606e-38
52	0x3db5c43d	0.0887532
53	0x00213ec6	3.05309e-39
54	0x001fc80b	2.918662e-39
55	0xbe86ca53	-0.26326236
56	0x803a62ca	-5.361898e-39
57	0x801771e2	-2.15307e-39
58	0xbdf104f0	-0.1176852
59	0x0024954a	3.359633e-39
60	0x001526c2	1.942449e-39
61	0xbe530fec	-0.20611542
62	0x00427d1e	6.106026e-39
63	0x0047a95e	6.581078e-39
64	0xbdd37c89	-0.103264876
65	0x0158f1b4	3.9846348e-38
66	0x802e6d8f	-4.263735e-39
67	0xbe5f29ba	-0.21793261
68	0x0048af59	6.675059e-39
69	0x81bc6dca	-6.921783e-38
70	0x3e1fc98d	0.1560423
71	0x80232ec6	-3.231022e-39
72	0x802fc938	-4.388452e-39
73	0x3c1205ee	0.008912547
74	0x803c158e	-5.517862e-39
75	0x8008dfd3	-8.14977e-40
76	0xbdf0194a	-0.117235735
77	0x0007d5af	7.19504e-40
78	0x000bd8f5	1.08802e-39
79	0x3e8296c6	0.25505656
80	0x0025b2ee	3.462101e-39
81	0x00254b65	3.42496e-39
82	0x3e808fe0	0.25109768
83	0x803dc98a	-5.674264e-39
84	0x8033842c	-4.731025e-39
85	0x3e1c44d5	0.15260632
86	0x802f37c2	-4.33627e-39
87	0x804c0763	-6.982148e-39
88	0xbbc262d1	-0.00593219
89	0x8008c4ec	-8.05326e-40
90	0x001f9596	2.900562e-39
91	0xbe043841	-0.12912084
92	0x800345b8	-3.00517e-40
93	0x0013e2aa	1.826186e-39
94	0x3e59c3f2	0.21266153
95	0x800c7b36	-1.146226e-39
96	0x003073f7	4.449704e-39
97	0x3dd13f47	0.10217147
98	0x01786c28	4.5628004e-38
99	0x00266bb2	3.528383e-39
100	0xbdcb5cac	-0.09929785
101	0x80434c2e	-6.180306e-39
102	0x00277ec3	3.627058e-39
103	0x3e2197f3	0.1578062
104	0x80484898	-6.638197e-39
105	0x803abe61	-5.394754e-39
106	0xbe1255d8	-0.1429056
107	0x00284bb3	3.700576e-39
108	0x80259bc2	-3.453789e-39
109	0xbddbf5c2	-0.10740234
110	0x003d1733	5.610288e-39
111	0x80283171	-3.691156e-39
112	0x3e124641	0.14284612
113	0x817f9c28	-4.694814e-38
114	0x00362a40	4.974273e-39
115	0xbe542549	-0.20717348
116	0x00fba850	2.3111089e-38
117	0x8034eb7f	-4.859926e-39
118	0xbe6d4f66	-0.2317482
119	0x800aa280	-9.76649e-40
120	0x800c8914	-1.1512e-39
121	0x3e80b578	0.2513845
122	0x00060b3d	5.55045e-40
123	0x8025bb5f	-3.46513e-39
124	0x3e3f7ae3	0.18699221
125	0x802d0be3	-4.136861e-39
126	0x80216676	-3.067327e-39
127	0x3e1ce699	0.15322341
128	0x0047aa55	6.581424e-39
129	0x8044f695	-6.333271e-39
130	0xbe6c8b2e	-0.23099968
131	0x001a964d	2.44164e-39
132	0x80360a5f	-4.962837e-39
133	0x3e2ebd68	0.1706444
134	0x0008d7ff	8.12169e-40
135	0x0020f371	3.026066e-39
136	0xbdc0a529	-0.09406502
137	0x801e12de	-2.761833e-39
138	0x802e20d5	-4.236211e-39
139	0xbddc8e5c	-0.107693404
140	0x802b2ce8	-3.965036e-39
141	0x80168bfb	-2.070596e-39
142	0xbad9e86b	-0.0016625052
143	0x0028b7d9	3.739372e-39
144	0x800b0914	-1.013447e-39
145	0x3e5ef814	0.21774322
146	0x8002efef	-2.69743e-40
147	0x803b3a69	-5.439248e-39
148	0x3e797417	0.24360691
149	0x81be1ced	-6.9836484e-38
150	0x8002d159	-2.58771e-40
151	0x3d85fc37	0.06542247
152	0x0046acf4	6.490529e-39
153	0x002fd83e	4.393841e-39
154	0xbe189bef	-0.14903234
155	0x001c0ab5	2.575235e-39
156	0x80373a6c	-5.07191e-39
157	0xbe2f7b6c	-0.17136925
158	0x80393b43	-5.255882e-39
159	0x80092dec	-8.42993e-40
160	0xbe361b2f	-0.17783807
161	0x000e3775	1.305591e-39
162	0x802817b0	-3.681917e-39
163	0xbd554292	-0.05206544
164	0x01a3d857	6.0187176e-38
165	0x01a423e6	6.02956e-38
166	0x3e56c5e5	0.20973928
167	0x002e6bd9	4.263121e-39
168	0x00147d69	1.881699e-39
169	0xbe428689	-0.18996634
170	0x0008cf2f	8.09007e-40
171	0x804bf0dc	-6.974066e-39
172	0xbe3ef2ef	-0.1864736
173	0x80094d5f	-8.54275e-40
174	0x8020b53f	-3.003755e-39
175	0xbe9ad284	-0.30238736
176	0x8007a710	-7.02779e-40
177	0x80372b71	-5.066536e-39
178	0x3e41db67	0.18931352
179	0x80260d7e	-3.494589e-39
180	0x8015c8c3	-2.000565e-39
181	0xbe88c84f	-0.26715323
182	0x801afd5c	-2.478611e-39
183	0x802c6626	-4.077406e-39
184	0xbe1eda3a	-0.15512934
185	0x017ac0c8	4.6056062e-38
186	0x003b1adc	5.42793e-39
187	0xbe4c56bf	-0.19954966
188	0x0044fba3	6.335084e-39
189	0x002dc64e	4.203736e-39
190	0x3d51096d	0.05103438
191	0x80042285	-3.79725e-40
192	0x0009d96a	9.04513e-40
193	0xbe8a69e3	-0.2703391
194	0x003c467e	5.535418e-39
195	0x801a8b27	-2.437641e-39
196	0xbe81b891	-0.25336125
197	0x00491b4d	6.713785e-39
198	0x001ef0ba	2.841421e-39
199	0x3cf5cbbd	0.030004377
200	0x0044107e	6.25073e-39
201	0x80295177	-3.79448e-39
202	0xbe00b5bb	-0.12569325
203	0x003f2069	5.797263e-39
204	0x0013805c	1.790921e-39
205	0xbe623561	-0.22090675
206	0x80d334b8	-1.9396202e-38
207	0x800998d6	-8.81347e-40
208	0xbe0a11ed	-0.134834
209	0x005bea80	8.441153e-39
210	0x801f704d	-2.887186e-39
211	0xbe1d48e9	-0.15359844
212	0x003a20b8	5.338196e-39
213	0x803d486c	-5.627945e-39
214	0x3e858d86	0.26084536
215	0x802b43fe	-3.973317e-39
216	0x8025dd0d	-3.477211e-39
217	0x3e83d686	0.25749606
218	0x0049b275	6.76801e-39
219	0x000d1be5	1.203868e-39
220	0x3e33a55b	0.17543547
221	0x00155e58	1.96239e-39
222	0x803b2663	-5.432065e-39
223	0x3e07bf2d	0.13256522
224	0x81802452	-4.707189e-38
225	0x8007ec80	-7.27689e-40
226	0xbe52d252	-0.20588043
227	0x80423044	-6.078457e-39
228	0x0026cf9f	3.564229e-39
229	0x3e0bff80	0.13671684
230	0x015ab074	4.0166875e-38
231	0x004051ed	5.906861e-39
232	0xbe30cb16	-0.17264971
233	0x0007b91e	7.09256e-40
234	0x802a2d1b	-3.873272e-39
235	0xbdaded3a	-0.08492513
236	0x80318e40	-4.550969e-39
237	0x002ad41c	3.933181e-39
238	0xbe2d588e	-0.16928312
239	0x000276ba	2.26262e-40
240	0x002c5830	4.072398e-39
241	0x3c144382	0.009049298
242	0x804107a9	-5.972055e-39
243	0x8028fb64	-3.763602e-39
244	0x3df42775	0.11921588
245	0x80368c68	-5.009485e-39
246	0x8011bbbd	-1.628551e-39
247	0x3dd0bb2c	0.1019195
248	0x8033ba35	-4.750409e-39
249	0x801d3ac6	-2.684313e-39
250	0xbe5b98fe	-0.2144508
251	0x0023194e	3.22332e-39
252	0x803b5243	-5.447804e-39
253	0x3ca857d3	0.02054969
254	0x003262fd	4.627285e-39
255	0x802d9e0d	-4.189295e-39

blocks.0.0.bias f4 [32]
0	0x39955d07	0.00028488805
1	0xbabda184	-0.0014467691
2	0xbb578477	-0.0032885352
3	0xba3c491d	-0.00071825256
4	0x39028854	0.00012448552
5	0xbaaa543b	-0.0012995073
6	0xbb222829	-0.0024743176
7	0x3e1b954b	0.1519367
8	0xba29f154	-0.0006482799
9	0xbb4583e7	-0.0030138434
10	0xbb856799	-0.0040711877
11	0x39cdb85d	0.00039238008
12	0xba80da35	-0.0009830656
13	0x3ddf4109	0.10901076
14	0xbb0a6b27	-0.0021120997
15	0xbb73e73b	-0.0037216682
16	0xbb2bf639	-0.002623929
17	0xbb5d49ec	-0.0033765985
18	0xbb22d300	-0.0024845004
19	0xba60dafc	-0.0008577553
20	0xba22ebb5	-0.00062149327
21	0xbb6a75f6	-0.0035775877
22	0xbad6a819	-0.0016377001
23	0xbb7d15d4	-0.0038617747
24	0xbb55b94c	-0.0032611666
25	0xbac68378	-0.0015145382
26	0xbb1c64f6	-0.0023863888
27	0xb90ccd3f	-0.000134279
28	0xbb4153d7	-0.0029499435
29	0xba8ed25d	-0.0010896433
30	0xba970b27	-0.0011523709
31	0xba9f8c27	-0.0012172506

blocks.0.2.weight f4 [32]
0	0x3f3e1cb6	0.7426256
1	0x3f3b1bdd	0.7308939
2	0x3f31b880	0.6942215
3	0x3f42c7ac	0.76085925
4	0x3f393201	0.72341925
5	0x3f441342	0.76591885
6	0x3f40087a	0.75012934
7	0x3f73b775	0.9520181
8	0x3f3ce26d	0.73783
9	0x3f341ade	0.70353496
10	0x3f3df223	0.74197596
11	0x3f48f8b1	0.7850447
12	0x3f354400	0.70806885
13	0x3f6d9c75	0.9281686
14	0x3f341121	0.70338637
15	0x3f3dd8ad	0.74158746
16	0x3f36c97a	0.7140118
17	0x3f3b3beb	0.731383
18	0x3f45aa21	0.7721272
19	0x3f43253c	0.7622869
20	0x3f377f3f	0.7167854
21	0x3f4afa02	0.7928773
22	0x3f360fd0	0.7111788
23	0x3f2f3308	0.6843724
24	0x3f4321f8	0.7622371
25	0x3f4cfbaa	0.8007151
26	0x3f3775fa	0.7166439
27	0x3f3426a9	0.7037149
28	0x3f354e5e	0.70822704
29	0x3f412bf6	0.75457704
30	0x3f496bad	0.78679925
31	0x3f4b0df0	0.7931814

blocks.0.2.bias f4 [32]
0	0x3ea189a4	0.31550324
1	0x3ea1b7dd	0.3158559
2	0x3e8eeeef	0.27916667
3	0x3eaf1a62	0.34199816
4	0x3ea08de6	0.3135826
5	0x3ea7645d	0.3269376
6	0x3ea155a0	0.3151064
7	0xbc55cf52	-0.013049917
8	0x3ea5e288	0.32399392
9	0x3ea04a26	0.3130657
10	0x3ea14a9e	0.3150224
11	0x3eb5fcf7	0.3554456
12	0x3ea23f3f	0.31688878
13	0x3db3e546	0.08783965
14	0x3e9baa56	0.30403394
15	0x3e9b65e0	0.30351162
16	0x3e976661	0.29570296
17	0x3eb12319	0.3459709
18	0x3eaf809b	0.34277806
19	0x3eabfd28	0.3359158
20	0x3e9e2ad8	0.30892062
21	0x3ead78ba	0.3388117
22	0x3e9aa006	0.30200213
23	0x3e903ca6	0.2817127
24	0x3eacef15	0.33776155
25	0x3ead3e7f	0.33836743
26	0x3e9b3b6c	0.30318773
27	0x3ea86e18	0.32896495
28	0x3e9cdac3	0.30635652
29	0x3eaa5a7b	0.33272156
30	0x3eb9182b	0.3615125
31	0x3ebb52a6	0.36586493

blocks.0.2.running_mean f4 [32]
0	0x3c8fafb6	0.01753984
1	0x3c8b32e4	0.01699204
2	0x3c8c85e4	0.017153688
3	0x3c8c2397	0.017106814
4	0x3c91f684	0.017817743
5	0x3c8fa13d	0.01753294
6	0x3c93e8ff	0.018055437
7	0x3e1a801e	0.15087935
8	0x3c8acd17	0.016943498
9	0x3c81a889	0.015827434
10	0x3c84cbe5	0.016210506
11	0x3ca2f274	0.019891001
12	0x3c907dab	0.017638048
13	0x3ddf7421	0.10910822
14	0x3c852ff5	0.01625822
15	0x3c813638	0.015772924
16	0x3c8de45b	0.017320802
17	0x3c830fd7	0.015998764
18	0x3c8abeec	0.016936742
19	0x3c9ac81c	0.018894248
20	0x3c9b7cd2	0.018980417
21	0x3c9176a7	0.017756773
22	0x3c90d068	0.0176775
23	0x3c8c0b2c	0.01709517
24	0x3c946f06	0.018119346
25	0x3c93d0ea	0.018043954
26	0x3c91a1a2	0.017777268
27	0x3c90863e	0.017642137
28	0x3c82311d	0.01589256
29	0x3c93d392	0.01804522
30	0x3c8bea7d	0.017079586
31	0x3c9a23db	0.018815925

blocks.0.2.running_var f4 [32]
0	0x3a968d81	0.0011486263
1	0x3a8a6963	0.0010559972
2	0x3a9f1807	0.0012137898
3	0x3a86dd4b	0.0010289339
4	0x3a93b142	0.0011268037
5	0x3a90a9ce	0.0011036934
6	0x3aafdb8c	0.001341687
7	0x3af7cc13	0.0018905423
8	0x3a885b58	0.0010403199
9	0x3a803ec8	0.0009784335
10	0x3aa3ba37	0.001249141
11	0x3abad411	0.0014253875
12	0x3a8f9d15	0.0010956848
13	0x3af662c5	0.0018797746
14	0x3a8410cd	0.0010075808
15	0x3a651652	0.0008738983
16	0x3a92a186	0.0011187054
17	0x3a77e0e5	0.0009455814
18	0x3a8ada57	0.0010593635
19	0x3a9e9dbf	0.0012101455
20	0x3aa21797	0.001236665
21	0x3aa5959d	0.0012633089
22	0x3a8b5681	0.0010630639
23	0x3aabaf74	0.0013098554
24	0x3abccec0	0.0014404878
25	0x3a8a6f92	0.0010561815
26	0x3a9762eb	0.0011549866
27	0x3a96624f	0.001147339
28	0x3a6b4802	0.00089752686
29	0x3aa02249	0.0012217249
30	0x3a919907	0.0011108228
31	0x3a9d287c	0.0011990215

blocks.1.0.weight f4 [32, 32, 3]
0	0x801aecd0	-2.472675e-39
1	0x3e18da5c	0.14927047
2	0x019609a2	5.511512e-38
3	0x800e0905	-1.288933e-39
4	0x3d906c4e	0.070519075
5	0x801c4fe2	-2.60005e-39
6	0x0018df97	2.284261e-39
7	0x3e06119d	0.13092656
8	0x003a1ca6	5.336736e-39
9	0x81872a4e	-4.965187e-38
10	0x3dbc81c2	0.09204437
11	0x003e1713	5.702078e-39
12	0x804661f2	-6.463621e-39
13	0x3da7ef72	0.081999674
14	0x003a1292	5.33312e-39
15	0x0025b946	3.464377e-39
16	0x3ca40b49	0.020024912
17	0x002872a2	3.714542e-39
18	0x81b9429f	-6.8053864e-38
19	0x3db9d33e	0.090734944
20	0x80069675	-6.04987e-40
21	0x002ab7c0	3.923008e-39
22	0xbc3de2f6	-0.011589756
23	0x8023c909	-3.28636e-39
24	0x801a1f61	-2.39898e-39
25	0x3d84d890	0.064866185
26	0x0001a369	1.50456e-40
27	0x003154e6	4.530395e-39
28	0x3d6892c6	0.0567806
29	0x80a1a208	-1.4843641e-38
30	0x01aaade8	6.269768e-38
31	0x3d5809c4	0.05274369
32	0x802ce85c	-4.124117e-39
33	0x80095771	-8.57888e-40
34	0x3e2b3f09	0.16723265
35	0x0020ecf1	3.023734e-39
36	0x811b8ef4	-2.8571568e-38
37	0x3e299da7	0.16564046
38	0x01ac48d3	6.328732e-38
39	0x01045118	2.4302753e-38
40	0x3d2a7dfa	0.041624047
41	0x01a38699	6.006988e-38
42	0x001ddfdf	2.743539e-39
43	0x3d930cfa	0.071802095
44	0x80010c62	-9.6278e-41
45	0x00372cbd	5.067001e-39
46	0x3daae2a0	0.083440065
47	0x8002e4e4	-2.65781e-40
48	0x001f71df	2.88775e-39
49	0x3df8e972	0.12153901
50	0x8032ab09	-4.65313e-39
51	0x80327538	-4.633825e-39
52	0x3e01c796	0.12673792
53	0x0006254d	5.64394e-40
54	0x003d99b9	5.65711e-39
55	0x3deff239	0.11716122
56	0x0036f32a	5.046348e-39
57	0x00227b62	3.166668e-39
58	0x3d90f255	0.07077471
59	0x004c486a	7.005475e-39
60	0x8036d55e	-5.035659e-39
61	0x3dd06ae6	0.10176639
62	0x8004b15e	-4.3097e-40
63	0x001e208e	2.766743e-39
64	0x3db96546	0.090525195
65	0x802d2d96	-4.14895e-39
66	0x803decde	-5.686937e-39
67	0x3d8ffeb6	0.07031004
68	0x01410830	3.5454376e-38
69	0x80010511	-9.3653e-41
70	0x3db87e53	0.090084694
71	0x80072b0e	-6.58294e-40
72	0x8005ff32	-5.50724e-40
73	0x3e14f3c5	0.14546116
74	0x81b9a6fc	-6.819788e-38
75	0x800e410f	-1.309036e-39
76	0x3e3d2470	0.18470931
77	0x803aec6d	-5.411272e-39
78	0x80213f32	-3.053242e-39
79	0x3e094c50	0.13408017
80	0x000ce57d	1.184351e-39
81	0x8006cb69	-6.23983e-40
82	0x3e00abd0	0.12565541
83	0x800ed803	-1.363187e-39
84	0x004a9fdf	6.853178e-39
85	0x3d979cd9	0.07402963
86	0x003e1514	5.701362e-39
87	0x800419fc	-3.76663e-40
88	0x3dc1628f	0.09442627
89	0x01a72db9	6.141172e-38
90	0x0030def2	4.488082e-39
91	0x3e072bab	0.13200252
92	0x016d16bc	4.3546336e-38
93	0x80114f51	-1.589657e-39
94	0x3db6b9af	0.08922135
95	0x8042e648	-6.143752e-39
96	0x8024c16c	-3.375465e-39
97	0xba64b510	-0.000872449
98	0x01abb95e	6.308147e-38
99	0x000b0fab	1.015811e-39
100	0x3b25978a	0.0025267326
101	0x801aa2c3	-2.446111e-39
102	0x80222bd6	-3.138132e-39
103	0x3dd05ee9	0.10174353
104	0x0017e1f3	2.193272e-39
105	0x002cdff0	4.121095e-39
106	0x3da9b68f	0.082867734
107	0x8025f280	-3.484906e-39
108	0x001407e1	1.839536e-39
109	0x3e151645	0.14559276
110	0x80126117	-1.687868e-39
111	0x00452803	6.351003e-39
112	0x3e0da7eb	0.13833587
113	0x000df50b	1.281766e-39
114	0x00126f51	1.692972e-39
115	0x3dae81f7	0.085208826
116	0x00447493	6.286633e-39
117	0x0003c32a	3.45518e-40
118	0x3db611a4	0.088900834
119	0x00381e29	5.153607e-39
120	0x002c1686	4.048842e-39
121	0x3bab6416	0.005230437
122	0x0012c6cd	1.724355e-39
123	0x801a0ed8	-2.393048e-39
124	0x3d5ad39d	0.053424466
125	0x80244e6e	-3.334213e-39
126	0x00396a96	5.272859e-39
127	0x3c694c7a	0.014239425
128	0x000ae880	1.00176e-39
129	0x015b4be8	4.0278407e-38
130	0x3cd7f3d7	0.02636139
131	0x001b313f	2.497225e-39
132	0x80435d3a	-6.186422e-39
133	0xbaeefedb	-0.0018233912
134	0x00045158	3.96523e-40
135	0x8048768e	-6.654685e-39
136	0xbed1b499	-0.40958098
137	0x0019dd5a	2.375293e-39
138	0x801f270b	-2.860906e-39
139	0x3dff72c6	0.12473063
140	0x0013b570	1.809962e-39
141	0x000f270f	1.391544e-39
142	0x3cdb349b	0.026758483
143	0x0114f7d8	2.7361126e-38
144	0x80146b49	-1.875197e-39
145	0x3db067cb	0.08613547
146	0x0046e6a9	6.51123e-39
147	0x0025326b	3.416e-39
148	0x3daa68f4	0.083207995
149	0x004a441c	6.82026e-39
150	0x80146797	-1.873871e-39
151	0x3d9d3a1c	0.07677099
152	0x0030c33f	4.478145e-39
153	0x80378136	-5.097304e-39
154	0x3d6f5e7d	0.05843972
155	0x80327474	-4.63355e-39
156	0x003b9621	5.47215e-39
157	0xbcf829d6	-0.030293386
158	0x0000900e	5.1677e-41
159	0x017f3a1c	4.6877794e-38
160	0x3d3ca5b5	0.046056468
161	0x8125fbc4	-3.0486347e-38
162	0x01aac505	6.2730847e-38
163	0xbe801964	-0.25019372
164	0x80107d1a	-1.514246e-39
165	0x801b3286	-2.497683e-39
166	0xbc8a7c5a	-0.016904999
167	0x80189542	-2.257596e-39
168	0x00113f20	1.583848e-39
169	0x3e43487a	0.19070616
170	0x00284cd5	3.700982e-39
171	0x0038c606	5.213825e-39
172	0x3defd337	0.11710208
173	0x00003d62	2.202e-41
174	0x8019dc4b	-2.374914e-39
175	0x3db4f61d	0.08836005
176	0x803a12c5	-5.333192e-39
177	0x0013b5e5	1.810126e-39
178	0x3dbccfd5	0.09219328
179	0x0025193e	3.406969e-39
180	0x811491cc	-2.728791e-38
181	0x3e1072b5	0.14106257
182	0x0031c1e9	4.569501e-39
183	0x810d32a8	-2.5933954e-38
184	0xbc719ae6	-0.014746403
185	0x0022dc98	3.201541e-39
186	0x0017cf2f	2.18654e-39
187	0x3d73cece	0.059523396
188	0x800f47b3	-1.403253e-39
189	0x001b9a55	2.534922e-39
190	0x3db41832	0.087936774
191	0x0017267c	2.126022e-39
192	0x000c986e	1.156707e-39
193	0x3daf0e02	0.08547594
194	0x8009d4ac	-9.02812e-40
195	0x802e8978	-4.273747e-39
196	0x3d963171	0.07333649
197	0x0002e0dc	2.64335e-40
198	0x00164e22	2.04841e-39
199	0x3e0d78d3	0.13815622
200	0x80376f5d	-5.090902e-39
201	0x002f19d6	4.325537e-39
202	0x3dc26151	0.09491218
203	0x003ca74e	5.570147e-39
204	0x8018be90	-2.272413e-39
205	0x3dc53560	0.09629321
206	0x8032566b	-4.622776e-39
207	0x004ca052	7.03701e-39
208	0x3e0945ee	0.13405582
209	0x0037ed22	5.13602e-39
210	0x8025b4a2	-3.462712e-39
211	0x3d8931f8	0.06698984
212	0x00264a21	3.516341e-39
213	0x003cc670	5.581316e-39
214	0x3d206e75	0.03916784
215	0x80094c05	-8.5379e-40
216	0x0008b1d1	7.98472e-40
217	0x3dc53119	0.09628505
218	0x80327eb9	-4.637234e-39
219	0x0039ad6e	5.296838e-39
220	0x3dfd1d0d	0.123590566
221	0x803fe2cc	-5.866996e-39
222	0x000abb70	9.85595e-40
223	0x3d265285	0.04060604
224	0x801181b4	-1.607732e-39
225	0x802f8fd1	-4.36786e-39
226	0x3e0c2428	0.13685668
227	0x017d8a30	4.6567906e-38
228	0x80224b80	-3.149491e-39
229	0x3dbddc5a	0.09270544
230	0x0000852b	4.7772e-41
231	0x815cc99c	-4.0552266e-38
232	0xbc2b4637	-0.010453752
233	0x819198a6	-5.348363e-38
234	0x000e3d5f	1.307713e-39
235	0x3dc7a9ea	0.097492054
236	0x8019cf19	-2.37018e-39
237	0x80220513	-3.124227e-39
238	0x3dc7e72a	0.09760888
239	0x0031ef6d	4.585829e-39
240	0x0011fb5c	1.651374e-39
241	0x3e01d7dd	0.12680002
242	0x800b08f7	-1.013406e-39
243	0x00327c37	4.636335e-39
244	0x3db9ff06	0.09081845
245	0x002368b4	3.251803e-39
246	0x80185d20	-2.237459e-39
247	0x3e2c6ae8	0.16837656
248	0x00199f8b	2.35312e-39
249	0x00103547	1.48848e-39
250	0x3e1e1f80	0.15441704
251	0x8036b140	-5.022702e-39
252	0x802da66d	-4.1923e-39
253	0x3df72561	0.12067676
254	0x003b6570	5.454683e-39
255	0x804afedf	-6.887257e-39

blocks.1.0.bias f4 [32]
0	0x3ebaa7c9	0.36456135
1	0x3e09c323	0.13453345
2	0x3ebe3070	0.3714633
3	0x3d8e0d28	0.06936103
4	0x3d318493	0.043339323
5	0xbcac6b52	-0.021047268
6	0x3ea8a019	0.32934645
7	0x3e52e148	0.2059375
8	0xbdecde11	-0.11565793
9	0xbd4ddd7d	-0.050260056
10	0xbd5ea1d3	-0.054353546
11	0x3e6d08a8	0.23147833
12	0x3eb9d10a	0.36292297
13	0x3df24a49	0.11830575
14	0x3eab9b40	0.33516884
15	0x3e44e95f	0.19229649
16	0x3ec74b5d	0.38924685
17	0x3ca6670c	0.020312808
18	0x3e66aecc	0.22527617
19	0x3eac540a	0.33657867
20	0xbbbdd67f	-0.005793392
21	0x3da21886	0.07914834
22	0xbd2d4b11	-0.042307917
23	0x3ea550f8	0.32288337
24	0x3ec263ce	0.3796677
25	0x3d062dd3	0.032758545
26	0xbd8eff5c	-0.069823
27	0x3e01cd43	0.12675957
28	0xbd0a4bc2	-0.033763655
29	0x3e563dc7	0.20922004
30	0xbbe53d71	-0.00699585
31	0x3ec9a08b	0.39380297

blocks.1.2.weight f4 [32]
0	0x3ef7423c	0.4829272
1	0x3ef94c40	0.48690987
2	0x3f0dd887	0.5540852
3	0x3ed852dc	0.42250717
4	0x3ed36b77	0.41292927
5	0x3f199ea3	0.60007685
6	0x3ee081e2	0.43849093
7	0x3ed2af97	0.4114959
8	0x3f14c5b7	0.5811419
9	0x3eca4694	0.39506972
10	0x3f177be2	0.59173405
11	0x3f169ad0	0.58829975
12	0x3ef614e5	0.48062816
13	0x3edcb443	0.4310628
14	0x3efb026f	0.49025294
15	0x3ee005e4	0.43754494
16	0x3ef16f84	0.47155392
17	0x3ee3ce88	0.44493508
18	0x3ef3ef34	0.47643435
19	0x3ef41c61	0.476779
20	0x3ee60587	0.44926092
21	0x3ee2e74a	0.44317085
22	0x3ed539bd	0.41645613
23	0x3ee5bd1e	0.44870847
24	0x3effed8c	0.4998592
25	0x3ef85f09	0.48510006
26	0x3ee83122	0.45349985
27	0x3ee306d7	0.44341156
28	0x3ec97395	0.39345995
29	0x3ee107e5	0.43951336
30	0x3ef55a34	0.47920382
31	0x3f04e9a9	0.5191904

blocks.1.2.bias f4 [32]
0	0x3eabfecb	0.3359283
1	0x3e85b844	0.26117146
2	0x3ec1e364	0.37868798
3	0x3e372d35	0.17888339
4	0x3e353401	0.17695619
5	0x3e459b67	0.19297563
6	0x3e813c80	0.2524147
7	0x3e5ab4fc	0.21358103
8	0x3e2ee759	0.1708044
9	0x3e1766d6	0.14785323
10	0x3e2d2eda	0.16912404
11	0x3e5a3ab7	0.2131146
12	0x3e99f4fc	0.3006972
13	0x3e8395a8	0.25700116
14	0x3ea65ff6	0.32495087
15	0x3e88ff32	0.267572
16	0x3ea4ceee	0.32189125
17	0x3e2e2602	0.17006686
18	0x3e9f1b4f	0.31075522
19	0x3e9e3e28	0.30906796
20	0x3e4b1848	0.19833481
21	0x3e7d90fe	0.24762341
22	0x3dfe55de	0.124187216
23	0x3e8c5229	0.27406433
24	0x3eb1741b	0.34658894
25	0x3e392cb4	0.18083459
26	0x3ded8e4a	0.11599405
27	0x3e73556b	0.23763053
28	0x3dfdbee4	0.12389925
29	0x3e8787cf	0.264708
30	0x3e3e7c52	0.18602112
31	0x3eb2c167	0.3491318

blocks.1.2.running_mean f4 [32]
0	0x3fad5529	1.3541614
1	0x3f2b89de	0.67007244
2	0x3fae5fe7	1.3623017
3	0x3f0dace1	0.5534192
4	0x3eb3e1c3	0.3513318
5	0x3d2229f0	0.039590776
6	0x3fa85046	1.3149498
7	0x3f8393fa	1.0279534
8	0x3cd12f3d	0.02553522
9	0x3e82b454	0.25528204
10	0x3d04b16c	0.032395765
11	0x3dcb77f4	0.099349886
12	0x3fa9612f	1.3232783
13	0x3f4087d6	0.7520727
14	0x3fa3baea	1.2791417
15	0x3f576285	0.84134704
16	0x3fafdb4c	1.3738799
17	0x3eab5ce3	0.33469304
18	0x3f8996aa	1.0749104
19	0x3fa3d803	1.2800297
20	0x3ea34cfa	0.31894666
21	0x3f2c1c74	0.67230916
22	0x3e5593f2	0.20857218
23	0x3fa53f02	1.2909853
24	0x3faef551	1.3668615
25	0x3ea223d0	0.31667948
26	0x3e717274	0.23578817
27	0x3f42509a	0.7590424
28	0x3e384391	0.17994525
29	0x3f827328	1.0191393
30	0x3ed36933	0.41291198
31	0x3fb2a4ec	1.395658

blocks.1.2.running_var f4 [32]
0	0x3fbc6af1	1.4720136
1	0x3f2ff839	0.6873813
2	0x3fb8f520	1.4449806
3	0x3f094eaa	0.53635657
4	0x3e976bea	0.2957452
5	0x3c115350	0.008869961
6	0x3fb6a41d	1.4268833
7	0x3f8a153b	1.0787729
8	0x3b9d5f08	0.0048025884
9	0x3e829fd9	0.2551258
10	0x3bd68f44	0.0065478403
11	0x3d0625f0	0.032751024
12	0x3fb7d30a	1.4361279
13	0x3f48507d	0.78247815
14	0x3fad103a	1.3520577
15	0x3f56765a	0.8377434
16	0x3fbb7feb	1.4648412
17	0x3ea82fe1	0.3284903
18	0x3f957bbb	1.1678385
19	0x3fa5a81f	1.2941931
20	0x3e93df9d	0.2888154
21	0x3f310060	0.691412
22	0x3e57c9d1	0.2107308
23	0x3fb5932f	1.4185542
24	0x3fb80493	1.4376396
25	0x3e9288d9	0.2862003
26	0x3e670628	0.22560942
27	0x3f4daf6a	0.80345786
28	0x3e2bd4d6	0.16780409
29	0x3f87a7dd	1.0598103
30	0x3ef6190a	0.48065978
31	0x3fbe9cb5	1.4891573

blocks.2.0.weight f4 [32, 32, 3]
0	0x0012a6f3	1.712929e-39
1	0x3bea5058	0.007150691
2	0x800dcc3c	-1.267127e-39
3	0x002b720f	3.989843e-39
4	0x3c0e296e	0.00867687
5	0x81b3856e	-6.594568e-38
6	0x80028816	-2.3249e-40
7	0x3cf6e6a5	0.030139277
8	0x8007cc93	-7.16236e-40
9	0x0036133b	4.966015e-39
10	0x3cb36e11	0.02190307
11	0x0031360f	4.519332e-39
12	0x801df6aa	-2.751716e-39
13	0x3cb3a233	0.021927929
14	0x0035c3ac	4.937475e-39
15	0x00407a11	5.921261e-39
16	0xbe72e52e	-0.23720238
17	0x00354dce	4.895192e-39
18	0x803c5353	-5.540021e-39
19	0x3d1d2a75	0.03837057
20	0x0008492f	7.60937e-40
21	0x01ab798e	6.29899e-38
22	0x3b6a4be9	0.0035750812
23	0x0000093d	3.314e-42
24	0x002117c7	3.039101e-39
25	0xbe81a074	-0.2531773
26	0x8009bb71	-8.93761e-40
27	0x0046e684	6.511178e-39
28	0x3ca9e044	0.020736821
29	0x80060c70	-5.55475e-40
30	0x81632d2c	-4.1725724e-38
31	0xbe80592a	-0.25068027
32	0x81b16f0f	-6.517889e-38
33	0x00212b47	3.046096e-39
34	0xbe55e98d	-0.20889874
35	0x803d67e8	-5.63924e-39
36	0x802c7b14	-4.084914e-39
37	0x3d3a77be	0.04552435
38	0x000ccd9e	1.175788e-39
39	0x002425a8	3.319586e-39
40	0x3d88101c	0.066436976
41	0x8004f7b4	-4.56201e-40
42	0x004360c6	6.187694e-39
43	0xbc175fe8	-0.009239174
44	0x00095e7e	8.60417e-40
45	0x802042cb	-2.962697e-39
46	0x3cc50126	0.0240484
47	0x001bf171	2.566171e-39
48	0x801bff19	-2.57107e-39
49	0xbb7cd539	-0.003857924
50	0x8023df09	-3.294252e-39
51	0x802f2d97	-4.332623e-39
52	0x3cbf4cea	0.023352105
53	0x8020c402	-3.00905e-39
54	0x816b4e44	-4.3218836e-38
55	0x3c2d8837	0.010591558
56	0x802a045d	-3.858656e-39
57	0x001abfcd	2.456528e-39
58	0x3c74cd0d	0.014941466
59	0x0039bc9b	5.302282e-39
60	0x802022d3	-2.951228e-39
61	0xbc15cb44	-0.009142701
62	0x0017d976	2.190227e-39
63	0x0018d228	2.279442e-39
64	0xbb4e725d	-0.0031501271
65	0x802bdfcc	-4.02921e-39
66	0x000ab751	9.84116e-40
67	0xbce6e820	-0.028186858
68	0x0039ef43	5.320454e-39
69	0x80242ce9	-3.322189e-39
70	0x3d677cda	0.056515552
71	0x803f1ba4	-5.795552e-39
72	0x004c4bcf	7.006693e-39
73	0x3cb96711	0.022632154
74	0x818b8d08	-5.1262906e-38
75	0x8174c7e4	-4.4959137e-38
76	0x3c87390f	0.0165067
77	0x00317766	4.542771e-39
78	0x80279ea5	-3.638495e-39
79	0xbd273d3f	-0.040829893
80	0x018aba44	5.096047e-38
81	0x8003d652	-3.5239e-40
82	0xbbb86169	-0.0056268466
83	0x018baf66	5.131222e-38
84	0x803fe5e0	-5.8681e-39
85	0x3d33bf6f	0.043883737
86	0x01b82285	6.764046e-38
87	0x00124f14	1.681407e-39
88	0x3c0c7cbe	0.008574663
89	0x80443eb5	-6.267309e-39
90	0x81608764	-4.123944e-38
91	0xbcb4e737	-0.022082908
92	0x0022ab66	3.183893e-39
93	0x8007f8d8	-7.32117e-40
94	0xbc86ef69	-0.016471582
95	0x00188f2e	2.255415e-39
96	0x80407d69	-5.92246e-39
97	0x3cc296cb	0.023753544
98	0x802d0bd7	-4.136845e-39
99	0x8022863c	-3.170561e-39
100	0x3d39c389	0.045352492
101	0x804032ee	-5.895742e-39
102	0x00048bfa	4.17556e-40
103	0x3c8f9380	0.017526388
104	0x002d9d27	4.188973e-39
105	0x80213a04	-3.051383e-39
106	0x3d2cd51e	0.042195432
107	0x803718c5	-5.059838e-39
108	0x802cf5eb	-4.12898e-39
109	0x3b1006f9	0.0021976812
110	0x002e3af5	4.245583e-39
111	0x800d08a1	-1.196957e-39
112	0xbe34f16e	-0.17670223
113	0x800f603a	-1.412052e-39
114	0x8035dcdb	-4.94651e-39
115	0x3c923ac7	0.017850293
116	0x80029645	-2.37578e-40
117	0x0018b010	2.267211e-39
118	0xbc1277e5	-0.008939718
119	0x00014bb2	1.1899e-40
120	0x00074053	6.65924e-40
121	0xbe53da4b	-0.20688741
122	0x000d3988	1.2145e-39
123	0x001fb819	2.912942e-39
124	0xbc6ed97d	-0.01457822
125	0x001aa956	2.448469e-39
126	0x8005520b	-4.88609e-40
127	0xbe10ad83	-0.1412869
128	0x81a172c0	-5.930672e-38
129	0x0024803a	3.352077e-39
130	0xbe0704f1	-0.13185479
131	0x8041c69e	-6.040558e-39
132	0x8033c277	-4.753371e-39
133	0xbb783cfc	-0.0037878146
134	0x00399eb3	5.291554e-39
135	0x8002504e	-2.12479e-40
136	0x3d2c4cc1	0.042065386
137	0x80442b32	-6.260309e-39
138	0x002ac604	3.928125e-39
139	0xbc928d64	-0.017889686
140	0x80437fd2	-6.198832e-39
141	0x003513ea	4.874425e-39
142	0xbc79726f	-0.015225037
143	0x002d4576	4.157515e-39
144	0x8016056f	-2.02233e-39
145	0x3c15cfc2	0.009143772
146	0x801487c7	-1.885418e-39
147	0x0015e2f3	2.00996e-39
148	0x3ce0776b	0.027400693
149	0x8045003f	-6.336738e-39
150	0x80220bec	-3.126684e-39
151	0xb8959275	-7.1321534e-05
152	0x8010878f	-1.517997e-39
153	0x0043daca	6.231465e-39
154	0x3d445b26	0.04793849
155	0x803b7e62	-5.463632e-39
156	0x8030bfd5	-4.47692e-39
157	0x3ce1fedb	0.027587345
158	0x003f3e84	5.808063e-39
159	0x018d1d4c	5.183726e-38
160	0x3c5daeee	0.013530476
161	0x80374547	-5.075804e-39
162	0x800d7938	-1.237347e-39
163	0x3caebd69	0.021330552
164	0x801024e7	-1.482606e-39
165	0x8014bc90	-1.904353e-39
166	0x3c0923d8	0.008370362
167	0x800c6895	-1.139543e-39
168	0x002a33e9	3.875713e-39
169	0x3c6d0a44	0.01446778
170	0x002f87d2	4.364991e-39
171	0x8022f7b8	-3.211272e-39
172	0x3d069676	0.032858334
173	0x000c62fe	1.137538e-39
174	0x00030049	2.75609e-40
175	0x3c8caca5	0.017172167
176	0x000ed86e	1.363337e-39
177	0x0004f4f6	4.55217e-40
178	0x3bc1d00c	0.0059146937
179	0x0018ff8e	2.295728e-39
180	0x00173106	2.129803e-39
181	0x3c04c52b	0.008103649
182	0x80309104	-4.460126e-39
183	0x80152b6b	-1.944121e-39
184	0x3d1e859b	0.038701635
185	0x001bd340	2.55534e-39
186	0x003f00ad	5.785879e-39
187	0x3d36d994	0.044641092
188	0x801a353e	-2.406823e-39
189	0x002bbb91	4.016212e-39
190	0x3caea17f	0.021317242
191	0x00321439	4.59903e-39
192	0x000deb4a	1.278267e-39
193	0xbc85d7a0	-0.01633817
194	0x800d08c8	-1.197012e-39
195	0x00230010	3.214265e-39
196	0x3c877703	0.016536241
197	0x002ecd2b	4.298033e-39
198	0x00004233	2.3748e-41
199	0x3d121808	0.03566745
200	0x804971df	-6.74484e-39
201	0x81b15cc5	-6.515265e-38
202	0x3d172466	0.036899947
203	0x800bd59e	-1.086822e-39
204	0x01893f08	5.04163e-38
205	0x3cbe3398	0.023217961
206	0x802c2c46	-4.056644e-39
207	0x8028c4e3	-3.74405e-39
208	0xbdcbe1e5	-0.09955195
209	0x00ea8db8	2.1540345e-38
210	0x002f194b	4.325342e-39
211	0x3c859b11	0.016309293
212	0x00396466	5.27064e-39
213	0x80054d66	-4.86943e-40
214	0xbc935579	-0.017985092
215	0x00355991	4.899412e-39
216	0x801ad8eb	-2.465538e-39
217	0xbdc847b4	-0.09779301
218	0x801ee0d0	-2.835712e-39
219	0x8033c4f1	-4.75426e-39
220	0x3d0d53cf	0.034503754
221	0x8028d688	-3.750379e-39
222	0x001d6be0	2.701928e-39
223	0xbdc8457b	-0.09778877
224	0x804b9384	-6.940581e-39
225	0x017fa98c	4.6957747e-38
226	0xbdf01652	-0.11723007
227	0x0012d6fa	1.730158e-39
228	0x8001b33f	-1.56137e-40
229	0xbb86aa64	-0.0041096676
230	0x80004803	-2.5833e-41
231	0x003012fb	4.414913e-39
232	0x3d98bc05	0.07457737
233	0x00152a08	1.943623e-39
234	0x0013a6e7	1.804748e-39
235	0x3cd1eec8	0.025626555
236	0x8019966e	-2.349851e-39
237	0x0036c44f	5.029539e-39
238	0x3d603788	0.05474046
239	0x0026b059	3.55301e-39
240	0x800d9a36	-1.249182e-39
241	0x3d377bfe	0.044795983
242	0x803a2323	-5.339063e-39
243	0x80170e1e	-2.117281e-39
244	0x3b97267b	0.0046127415
245	0x800af096	-1.004661e-39
246	0x80240d2e	-3.310806e-39
247	0x3b85fbd3	0.0040888577
248	0x003fc4b6	5.856203e-39
249	0x000ef0c5	1.372069e-39
250	0x3b54f8c2	0.0032496904
251	0x01ba9ad4	6.8547777e-38
252	0x002c95ee	4.094546e-39
253	0x3cdabeb2	0.026702259
254	0x000bb393	1.07461e-39
255	0x804c7d9d	-7.024559e-39

blocks.2.0.bias f4 [32]
0	0x3f39fcea	0.7265154
1	0x3f4572d4	0.7712834
2	0x3f629ce5	0.8852065
3	0x3f7461d4	0.95461774
4	0x3f2d71fa	0.6775204
5	0x3f2bab11	0.670579
6	0x3f3fb043	0.7487833
7	0x3f7dc12c	0.9912288
8	0x3f7b1547	0.9807934
9	0x3e7d32c7	0.24726401
10	0x3f4ba56a	0.79549277
11	0x3f349e63	0.7055418
12	0x3f2b02fc	0.6680143
13	0x3f30ba7c	0.6903455
14	0x3f341c11	0.70355326
15	0x3f774f52	0.9660541
16	0x3f4af82e	0.7928494
17	0x3f7943ed	0.9736927
18	0x3f7d42bd	0.9892996
19	0x3f7689b7	0.96303886
20	0x3ef5c3b7	0.4800088
21	0x3f227603	0.6346132
22	0x3eba1040	0.36340523
23	0x3f1c683b	0.61096543
24	0x3f40845c	0.75201964
25	0x3f2599b4	0.6468766
26	0x3f75be87	0.95993847
27	0x3f55aba4	0.8346503
28	0x3f29f9ca	0.6639677
29	0x3f71c360	0.94438744
30	0x3f378446	0.7168621
31	0x3f4be12b	0.79640454

blocks.2.2.weight f4 [32]
0	0x3e94e5ac	0.29081476
1	0x3ec1238f	0.37722442
2	0x3ea37330	0.3192382
3	0xbec45e30	-0.3835311
4	0xbed3fa9a	-0.4140213
5	0xbea38243	-0.3193532
6	0xbec30035	-0.38086095
7	0x3e98e93c	0.29865444
8	0x3eb114b4	0.34586108
9	0x3efae35a	0.4900158
10	0xbeb5cc55	-0.35507455
11	0x3ebe0946	0.3711645
12	0xbea8ef9a	-0.329953
13	0x3e9eeb25	0.31038776
14	0x3e9f806f	0.31152675
15	0x3ead6025	0.33862415
16	0xbea9abd2	-0.331389
17	0x3ebb1453	0.36538944
18	0x3eb8b745	0.36077324
19	0x3e9f0c84	0.31064236
20	0x3ed49f16	0.41527623
21	0x3efe395a	0.4965313
22	0xbed01679	-0.40642145
23	0x3ef04fcc	0.4693588
24	0xbea7007c	-0.32617557
25	0x3ee65bd6	0.4499194
26	0xbeb882c0	-0.36037254
27	0xbea8c905	-0.32965866
28	0x3eb94a87	0.36189672
29	0x3e96f871	0.2948642
30	0xbea160e3	-0.3151923
31	0x3ea35620	0.31901646

blocks.2.2.bias f4 [32]
0	0x3cd05642	0.025431756
1	0x3bab9548	0.0052363016
2	0x3d3ec051	0.046570126
3	0xbd6ce88b	-0.057838958
4	0xbd4cf631	-0.050039474
5	0xbc029b93	-0.007971662
6	0xbd122f98	-0.03568992
7	0x3cdb82af	0.026795713
8	0x3ce50993	0.027958667
9	0xbbeff790	-0.007323213
10	0xbd32c376	-0.043643437
11	0x3c9afa5e	0.018918213
12	0xbcd14219	-0.025544213
13	0x3c6b8abd	0.0143763395
14	0x3d4a6c14	0.049419478
15	0x3cccd9db	0.025006225
16	0xbd6c3687	-0.05766919
17	0x3ce9edd9	0.028555797
18	0x3c46f898	0.01214423
19	0x3cef6ade	0.029225763
20	0xbc7e25b0	-0.015511915
21	0xbc9d0240	-0.019166112
22	0x3c9304a3	0.017946547
23	0xbccfe03b	-0.025375476
24	0xbcf2c79a	-0.029636193
25	0xbc79b141	-0.0152400145
26	0xbc9178a1	-0.017757716
27	0x3a169406	0.0005744103
28	0x3ce5fb49	0.028073924
29	0x3cd4b1b1	0.025963636
30	0xbc8c0373	-0.017091488
31	0x3ce74e4e	0.02823558

blocks.2.2.running_mean f4 [32]
0	0x3f42ccfe	0.76094043
1	0x3f51bead	0.81931573
2	0x3f7772ad	0.96659356
3	0x3f83790d	1.0271317
4	0x3f4ac416	0.79205453
5	0x3f48b87c	0.784065
6	0x3f580fd1	0.84399134
7	0x3f8348fb	1.0256647
8	0x3f832bd8	1.0247755
9	0x3e15dd53	0.1463521
10	0x3f65fe38	0.8984103
11	0x3f49db70	0.7885046
12	0x3f3be74a	0.73399794
13	0x3f423912	0.7586833
14	0x3f4a87b3	0.7911331
15	0x3f824de6	1.0180023
16	0x3f54d81b	0.8314225
17	0x3f8591ba	1.0435097
18	0x3f83eefd	1.0307308
19	0x3f846053	1.0341896
20	0x3e775eed	0.24157305
21	0x3eafb2f2	0.34316212
22	0x3e44ceb2	0.19219473
23	0x3ea772f8	0.32704902
24	0x3f4a8c64	0.7912047
25	0x3eb9081a	0.36138994
26	0x3f8338b9	1.0251685
27	0x3f6f2c26	0.9342674
28	0x3f3f180b	0.7464606
29	0x3f84f60e	1.038759
30	0x3f40e129	0.7534357
31	0x3f5e06af	0.8672895

blocks.2.2.running_var f4 [32]
0	0x3e03fac2	0.12888625
1	0x3e02ff68	0.12792742
2	0x3e0d0735	0.1377228
3	0x3dc94e8e	0.09829436
4	0x3e357904	0.17721945
5	0x3e347a6c	0.17624825
6	0x3e1a9f7b	0.150999
7	0x3d92c8d7	0.071672134
8	0x3dc40111	0.09570516
9	0x3d4fdd8f	0.050748404
10	0x3e222ba5	0.15836962
11	0x3e204c27	0.1565405
12	0x3e10f168	0.14154589
13	0x3e0eee40	0.13958073
14	0x3e249277	0.16071497
15	0x3db177f2	0.08665456
16	0x3e093b5a	0.13401547
17	0x3dc935be	0.09824704
18	0x3da6c2bb	0.08142611
19	0x3ddc9102	0.107698455
20	0x3da9c234	0.082889944
21	0x3df6ab09	0.12044341
22	0x3d886081	0.06659032
23	0x3de97f2e	0.11401211
24	0x3ddc8654	0.107678086
25	0x3de35884	0.111008674
26	0x3da6e70e	0.08149539
27	0x3df3422e	0.11877857
28	0x3e164bce	0.14677355
29	0x3de5bff0	0.1121825
30	0x3e006ba4	0.12541062
31	0x3e15f7cd	0.1464531

fc.weight f4 [1, 32]
0	0x3d83c301	0.064336784
1	0x3d464c5a	0.04841266
2	0x3d7a16e3	0.061056983
3	0xbd413a46	-0.047174715
4	0xbd231cff	-0.039822575
5	0xbd7ef969	-0.062249575
6	0xbd3d2a0f	-0.04618269
7	0x3d783f3d	0.060607184
8	0x3d57f2fa	0.052721955
9	0xbdd3d904	-0.10344127
10	0xbd4b5562	-0.049641974
11	0x3d4fefd9	0.050765846
12	0xbd5b91a0	-0.053605676
13	0x3d84c88b	0.06483563
14	0x3d7a5c86	0.061123393
15	0x3d6ffac8	0.058588773
16	0xbd67f3f7	-0.056629147
17	0x3d562d5e	0.05228936
18	0x3d70c07b	0.058777314
19	0x3d810f7f	0.06301784
20	0xbdea758e	-0.11448203
21	0xbdbece33	-0.09316673
22	0x3de74a91	0.11293519
23	0xbdcbb9f2	-0.09947576
24	0xbd613251	-0.054979626
25	0xbdd0d576	-0.101969644
26	0xbd613a6f	-0.054987367
27	0xbd6f4572	-0.058415838
28	0x3d61195f	0.054955836
29	0x3d84674d	0.064650156
30	0xbd7866ba	-0.060644843
31	0x3d7a294a	0.061074533
