nextitnet.pth (torch, 382928 bytes, 21 tensors)

user_emb.weight f4 [943, 32]
000000 4a f1 bb bd b2 aa f5 bd 5d d6 9f bd f9 16 45 3e
       -0.091768816 -0.11995448 -0.078045584 0.19247045
000010 24 dc cc 3c 7f 87 94 bc ec ec 91 bd da f1 1b bd
       0.025007315 -0.018131016 -0.071252674 -0.038072444
000020 1f 21 e7 bd 32 68 fe 3d 86 2f ed 3b 6f d3 06 3b
       -0.11285614 0.124222174 0.0072383313 0.0020572802
000030 ed 83 6a 3d 25 ea df 3c 10 29 2a be 22 db dd bc
       0.05725472 0.027333329 -0.16617227 -0.02708203
000040 09 71 74 3e bd b3 c8 bc 6e df 83 3e 16 58 ad bd
       0.23871244 -0.024499768 0.257564 -0.08464067
000050 80 48 8c bd 16 0b 09 be d9 15 e7 3d 4b f9 b2 be
       -0.06849766 -0.13383135 0.11283464 -0.3495582
000060 f0 13 4a 3d 5d f1 50 3e 19 12 91 3d 74 15 fb bd
       0.04933542 0.20404573 0.0708353 -0.12259951
000070 ff ac 4d 3d f8 15 d0 3d 63 71 33 3c ee b1 6f 3c
       0.05021381 0.1016044 0.0109523265 0.014629824
000080 db c0 47 be 76 0f ca bd 3b 0f b1 bb db d0 0a 3e
       -0.19507162 -0.0986623 -0.005403427 0.13556235
000090 d1 0a 96 be 2e 09 33 3e d9 13 84 3e a0 38 13 3c
       -0.29305127 0.1748397 0.25796393 0.008985668
0000a0 f0 00 1b be 4c 5c 8c bb 25 b7 4c 3d 8b d4 83 3d
       -0.15137076 -0.0042834636 0.049979348 0.06437024
0000b0 83 93 51 3e 1f 02 7c 3e 9b 66 95 3d 50 67 88 3c
       0.20466428 0.24610184 0.07294961 0.016650826
0000c0 bd e9 b9 3d 88 0a 77 3c 3d 03 cc 3e f8 a3 5c bd
       0.09077785 0.015078194 0.3984622 -0.05386731
0000d0 8f 11 37 3e 9d 8c f9 3d 80 02 9b bd b3 f5 e3 3d
       0.17877792 0.12185023 -0.07568836 0.11130848
0000e0 17 b0 c6 3d 68 06 95 bd 3b 67 e7 bc 09 6d 7c bd
       0.09701555 -0.072766125 -0.028247466 -0.06162742
0000f0 b9 cf 95 bd ed ef ff bd 47 ab ef bd 4a af 90 3c
       -0.073150106 -0.12496934 -0.117025904 0.01766171
000100 9f e9 5c be d4 49 5c be df 73 ca 3d fb 66 4e be
       -0.21573494 -0.21512538 0.09885382 -0.20156471
000110 91 ee 2b 3e be ca a9 be 1f 34 29 bd 97 be bf bd
       0.16790225 -0.33162493 -0.041309472 -0.09362524
000120 1e ac 5d bd 7c 62 ad 3a 98 68 63 3e 58 de 88 be
       -0.054119222 0.0013228203 0.22207868 -0.26732135
000130 89 93 0b 3e a0 3a 7f 3d 73 7b a5 bd b9 3c e7 3d
       0.13630499 0.06231177 -0.08080187 0.11290879
000140 74 6b 02 3c 88 71 70 3d 71 ed e3 bd 59 f7 a8 3b
       0.007960189 0.05870202 -0.11129273 0.0051564393
000150 e2 20 f8 bd 01 d7 8d be 19 55 10 be c9 dc 8b be
       -0.12115647 -0.27703097 -0.14094962 -0.27316883
000160 df 4f dc 3d 88 4d 34 3e 60 72 25 3e 0b 81 c3 3d
       0.10757422 0.17607701 0.16156912 0.09546097
000170 38 c6 27 bd 74 a8 bb bc 79 ec 83 3c fb 2e 08 bd
       -0.04096052 -0.022907473 0.01610397 -0.03324793
000180 98 d7 51 3e 82 a0 b6 be ac 63 49 3e 5a 0c 05 3c
       0.20492399 -0.35669333 0.19666928 0.008120621
000190 8b 16 2e 3b d7 24 92 be 8d 02 dd 3d 79 bf 89 bd
       0.002656373 -0.28543732 0.10791502 -0.06725974
0001a0 15 49 6e 3e 05 e9 d5 bc fc 55 da be 29 2d f3 bc
       0.23270066 -0.026112089 -0.42643726 -0.02968462
0001b0 d2 69 a2 bd 7d 6c 12 be 8b 85 34 be bc 8c 69 be
       -0.0793034 -0.14299197 -0.17629068 -0.22807592
0001c0 cc df a1 3b e8 a4 b5 bd 69 de fd 3d 72 3e 8f 3e
       0.0049400087 -0.08869344 0.12395937 0.2797733
0001d0 95 84 28 be 6f 38 fa bc 39 06 09 be f7 85 1f be
       -0.16456826 -0.030544488 -0.1338128 -0.15578447
0001e0 31 74 78 be 0a 2b 82 be 0e 0c a7 be f5 ef 38 3e
       -0.24263074 -0.2542346 -0.32626384 0.18060286
0001f0 a3 a7 9c 3e d7 5c 84 3e 3f 03 81 be 87 2e d8 3d
       0.30596647 0.2585208 -0.2519779 0.105557494
000200 9e ff 91 bd 6f f5 86 3e d0 9e 37 bd 9b 1c 18 3d
       -0.07128833 0.26359126 -0.04482919 0.037136655
000210 f6 7e 21 bd e9 bf 5f 3d d8 41 7b 3d a0 ab f4 bc
       -0.03942772 0.05462638 0.06134209 -0.029866993
000220 03 f3 bc bd 35 9d c4 3e b4 c8 76 3c ac 4e 29 bd
       -0.09226038 0.3840119 0.0150625 -0.041334793
000230 08 52 1a 3e 8c 53 b7 bd 31 28 08 bc 74 38 5d 3d
       0.15070355 -0.08951482 -0.008310364 0.054008916
000240 f8 3f a7 bd 7f f7 21 bd b4 39 bd 3d 39 06 c6 bd
       -0.08166498 -0.03954267 0.092395216 -0.09669156
000250 b3 62 c1 bc 15 90 28 3c ca 71 30 3e 67 ee 4e 3d
       -0.023606634 0.010288258 0.17230907 0.050520327
000260 88 af 1f bc ea e4 62 3d 7b 65 8e 3d 69 ad 37 3e
       -0.00974644 0.05539409 0.069529496 0.17937244
000270 0f 34 0a be 0a 8d 5e 3d f7 67 eb 3d 85 43 a8 be
       -0.13496421 0.054333724 0.11494439 -0.32864013
000280 53 1b e4 3d 50 a7 5f 3c e6 97 f4 bc 63 2b 74 3e
       0.11138024 0.01365073 -0.029857587 0.23844676
000290 98 eb 9a 3d 87 97 a8 be 1b 46 e4 bd e6 8f 1b be
       0.07564467 -0.32928106 -0.11146184 -0.15191612
0002a0 78 78 1a 3e 7d 38 18 3e 50 8a fe 3d f6 0f c6 bd
       0.15085018 0.14865299 0.12428725 -0.09671013
0002b0 7b 9f 9c be 07 ff 1f 3e 70 20 bb 3e ef d1 47 be
       -0.30590424 0.15624629 0.36548185 -0.19513677
0002c0 b1 62 14 3e d5 d3 2a 3d 23 b3 93 3a 58 b5 59 bd
       0.14490773 0.041705925 0.0011268597 -0.05315146
0002d0 66 bb dd 3c 3d 33 a9 3e 6d 60 ae 3a 6d 8a f0 3d
       0.027066898 0.33046904 0.0013303884 0.117451526
0002e0 86 ed c2 bd db 6a a0 be 4f 76 82 3e 48 d1 c9 3d
       -0.0951796 -0.31331524 0.25480887 0.0985437
0002f0 0a 01 26 3c 5d 72 84 3e 22 f6 30 3e 38 d4 43 3c
       0.010132084 0.25868502 0.17281392 0.011952452
000300 7a 22 85 bc c6 88 89 3d c7 e4 ae 3e 40 8f 29 3e
       -0.016251791 0.067155406 0.34158918 0.16558552
000310 ec d7 f4 3d 8d bd 87 be ee 59 43 bc 98 fe f6 3d
       0.11955246 -0.26511803 -0.011923296 0.12060279
000320 dc 3b 96 bc 61 4b b7 bc d4 fc 1a 3e 66 7a 10 be
       -0.01833909 -0.02237481 0.15135509 -0.14109191
000330 94 89 a2 3d e8 a5 47 be 36 63 56 be 22 52 15 3e
       0.07936397 -0.19496882 -0.20936283 0.14582112
000340 db e6 5a be 55 01 81 3e fe ca 79 3c a8 2b c9 3e
       -0.21377127 0.2519633 0.015246151 0.3929112
000350 85 eb 81 be 88 91 b4 bd 7f f9 48 be fb 1a 35 3e
       -0.25375 -0.088168204 -0.19626425 0.17686073
000360 70 b1 67 3e 48 95 1b 3e 58 ec d8 bc bc e5 54 bd
       0.22626281 0.15193665 -0.026479885 -0.051976904
000370 ab a7 a4 bd fe 41 25 be 9f c3 ad 3d 6b f8 9a 3d
       -0.080397926 -0.16138455 0.084845774 0.07566913
000380 37 4d c5 3c 47 41 44 be e3 ba 56 be 85 12 ef bd
       0.02408467 -0.19165526 -0.20969729 -0.11673454
000390 50 2d 89 3d 4e 50 46 3e 4c 80 58 be fe f6 80 bd
       0.06698096 0.19366571 -0.21142691 -0.0629711
0003a0 22 30 01 bd 55 e5 80 bd 7c a9 52 bd a5 0d aa bd
       -0.031540044 -0.062937416 -0.051431164 -0.08303384
0003b0 ba e3 b4 be a4 19 3c 3e 11 e4 b5 be 66 3d 99 bc
       -0.35329992 0.18369156 -0.35525563 -0.018706035
0003c0 e0 2c 98 3e 01 37 58 3e d6 70 e7 bc a4 34 21 be
       0.29721737 0.21114732 -0.028252047 -0.15742737
0003d0 51 09 ae bd 87 af 7e 3e 32 2d a9 bc eb 36 50 bd
       -0.08497871 0.24871646 -0.020651434 -0.050833624
0003e0 05 3d c4 3c 91 53 1d 3e 70 e1 68 be 13 18 10 3e
       0.023954878 0.1536391 -0.22742248 0.14071684
0003f0 78 3e 9c 3d 45 1e f6 bc 89 21 3f 3c 28 57 05 bd
       0.076291025 -0.03004373 0.01166571 -0.03255382

item_emb.weight f4 [1682, 32]
000000 f0 37 8d bd ef ae 2c bd f5 41 1f 3e cb cc 04 bf
       -0.06895435 -0.042159017 0.15552504 -0.5187499
000010 78 6f 82 3e f5 44 9b bd 26 61 0c 3e e0 d8 e1 bc
       0.2547567 -0.07581512 0.13708934 -0.027569234
000020 35 af 48 bd 18 1a 02 bd 2a 2b 40 3e 1b 5b ce bd
       -0.048995215 -0.031763166 0.18766466 -0.10075971
000030 54 72 9f be 67 e3 af bd dd cf cd 3e 18 f9 21 3d
       -0.31141913 -0.085882954 0.4019765 0.039544195
000040 17 9f 18 bd 43 d8 a2 bd f2 5b f7 3d 5e af c3 3d
       -0.037261095 -0.07951405 0.12078084 0.09554933
000050 b6 67 b5 3e 4c 6f 1a be aa 9f 36 be b1 22 a3 3c
       0.35430688 -0.15081519 -0.17834345 0.019914003
000060 9c 3b e6 bd 71 af c2 be a8 49 bd 3e c4 60 95 3e
       -0.11241838 -0.38024476 0.36970258 0.2917539
000070 56 19 4b 3d 0a 55 25 be f9 4b 31 3c d8 fd 60 3e
       0.04958471 -0.16145721 0.010821336 0.21971834
000080 65 a7 1e bd a0 91 1e bf 47 9a 28 3e ac c6 00 3f
       -0.03873386 -0.61940956 0.16465102 0.5030315
000090 26 17 bf 3d fc e0 0c bf 74 70 54 3e e4 77 8c 3e
       0.09330587 -0.550308 0.20746022 0.2743522
0000a0 4e 8e 96 be 15 9b 13 be 18 8f cd 3d 13 ab 87 3e
       -0.29405445 -0.14414628 0.100370586 0.26497707
0000b0 8a a3 a3 be c4 de f1 bc 23 f3 06 3f 34 25 11 be
       -0.31960708 -0.029525168 0.5271475 -0.14174348
0000c0 2e 96 3b 3d 63 e4 ca be 40 61 17 3e 2d 11 23 3e
       0.04579752 -0.3962737 0.14783192 0.15924521
0000d0 a3 bf 80 be 5d 30 e0 3e 58 3b 80 be 64 c1 b3 be
       -0.25146207 0.43786898 -0.25045276 -0.35108483
0000e0 91 b3 b3 3d cc ac 02 bf ec 34 c1 be 3c a9 cb 3c
       0.08774484 -0.5104492 -0.3773569 0.02486097
0000f0 09 21 0b be bf 40 47 3e b8 36 91 3b 8f de 7c bd
       -0.1358682 0.19458292 0.004431572 -0.061735686
000100 8c d4 10 3d c6 e9 73 bd 2d 3a 84 bd a9 11 5e bc
       0.03535895 -0.059549116 -0.06456409 -0.013554015
000110 be c0 9e 3d a8 96 92 bc 71 ce 7e 3d 27 de 71 3c
       0.077516064 -0.017894104 0.062208597 0.014762438
000120 97 42 a6 bc ec a5 db 3c 84 58 f4 3a 65 2a 67 3c
       -0.020295424 0.026812516 0.0018642102 0.014109229
000130 46 ad c1 bb c2 09 d9 3c 78 7b 88 3c 50 29 d9 bc
       -0.0059105484 0.02649391 0.016660437 -0.026508957
000140 82 36 8d bd 94 19 a6 3a 59 bc 98 bc e0 40 90 bc
       -0.06895162 0.0012672418 -0.018644499 -0.01760906
000150 47 58 91 bc b1 b5 ab 3b 3e 3f 06 3d 0a f0 41 3c
       -0.01774229 0.005240165 0.032775156 0.011837015
000160 06 fd 25 bd 75 d3 16 bd 44 d4 e1 3c e7 a5 9b bd
       -0.040524505 -0.036822755 0.027567036 -0.07600003
000170 32 8d 58 bd ec 39 00 bd 07 f2 8a bc 9b fc 1c bc
       -0.05286903 -0.03130524 -0.01696111 -0.00958171
000180 b8 d6 ed bd f9 4a 1d bd 49 d4 2b 3c b2 f5 35 3e
       -0.1161322 -0.038401578 0.010487624 0.17769507
000190 d4 d5 4c 3d 4b 1f f6 bb 0b b8 2f 3e 94 7e 21 3d
       0.05000861 -0.0075110546 0.1716005 0.039427355
0001a0 c0 7b 3a be de 5b 8f bc cd 20 a6 bd 38 6e 8a bd
       -0.1821127 -0.01749986 -0.08111725 -0.06759304
0001b0 a0 3e 39 be 5b 1e 8a be 39 b4 8d 3d 70 fa a1 3d
       -0.18090296 -0.26976284 0.0691914 0.07909095
0001c0 49 c7 37 be 02 5f de 3d 4d 38 9b bb fc 07 97 b9
       -0.17947115 0.10857965 -0.004736936 -0.00028806913
0001d0 3a b2 72 be 92 1a 0f be 24 6c 85 3e 77 40 24 3d
       -0.237008 -0.1397498 0.26059067 0.04010054
0001e0 b4 78 53 3e bf 0b 55 3e 4f 2b 24 3d 45 76 95 bd
       0.20651513 0.20805262 0.040080365 -0.07297949
0001f0 8e 03 1b be ad c3 c7 3a ac 49 86 3d ab e3 89 be
       -0.15138075 0.0015240811 0.065570205 -0.2693151
000200 fd 06 97 bd 70 69 92 3b cf 2d cc 3d bd e7 06 3e
       -0.0737438 0.0044681355 0.09969675 0.13174339
000210 f8 df 90 be e5 cf f7 3e 03 15 16 3d 85 a8 c3 3d
       -0.28295875 0.48400798 0.036641132 0.09553627
000220 ce ca 3a 3e b0 cc a1 be f5 72 9d 3d 1a 92 83 be
       0.18241426 -0.31601477 0.07687942 -0.25697404
000230 40 cc 14 bc b6 41 de 3d 97 49 7e be e4 1b 4c 3d
       -0.0090819 0.10852377 -0.2483276 0.049831286
000240 75 9d 43 3d de ef 8f be 33 30 36 3e f6 c7 50 3e
       0.047757585 -0.28112692 0.17791824 0.20388779
000250 15 e6 50 be 59 d6 36 be 0b df 02 3d 6e 0a bb bc
       -0.2040027 -0.17855205 0.03195099 -0.022832122
000260 8d 5a 09 3e 95 77 91 3e c0 cd d3 bd 8c 43 86 be
       0.13413449 0.28411546 -0.10341978 -0.2622341
000270 59 6d 6b 3e 87 c0 be bd 86 3a 8d 3c 47 aa 89 3e
       0.22990932 -0.093140654 0.01723982 0.26887724
000280 63 55 8f be 4e 4b af 3e d4 5f 61 3e 84 27 8c 3d
       -0.27994832 0.3423714 0.22009212 0.068434745
000290 2c d7 13 be f1 e1 5e 3e 2b d0 c8 bd 54 27 07 bd
       -0.1443755 0.21765877 -0.0980533 -0.03299649
0002a0 27 64 a0 be 0b 16 b0 be e8 d3 f1 3e 4b 2a 5a 3e
       -0.3132641 -0.34391817 0.47231984 0.21305196
0002b0 8d c3 05 3f a7 4c 4b 3e fc 8e 5f 3e 7f 53 3c bd
       0.5225151 0.1985346 0.21831888 -0.045978066
0002c0 60 42 2e be 3a 80 90 3e 63 50 1e 3e 02 b7 67 3e
       -0.17017508 0.2822283 0.15460353 0.22628406
0002d0 bb 2f 28 3e d7 3b 84 3e 93 29 b0 be f7 36 63 be
       0.16424458 0.25826904 -0.3440672 -0.22188936
0002e0 cb 46 91 bc d9 f4 88 3d 2a ef e7 be 3a 6f 89 3e
       -0.017733952 0.06687326 -0.45299655 0.26842672
0002f0 f7 5f 1e 3e d5 bb 7b bd e1 87 8d be 66 fa b4 3c
       0.15466295 -0.061458427 -0.2764273 0.022092056
000300 f5 30 33 3d 5e f2 a4 3e 84 5e 2e be e7 e3 a9 be
       0.04374786 0.3221616 -0.17028242 -0.33181688
000310 22 ab b7 bd 9f 15 4e 3e 8c 5a 88 3e 87 58 67 3d
       -0.08968188 0.20125435 0.26631582 0.05648091
000320 6c 9c 20 be 03 b6 3f 3e ec 99 54 3e 2d 15 11 3e
       -0.1568467 0.18721776 0.20761842 0.14168234
000330 d7 12 cb be 65 6f 18 3d 5e 3f c1 3e 04 ad eb bd
       -0.3966281 0.03721561 0.37743658 -0.115076095
000340 e5 61 e8 3c 55 8e 80 be fc 5b 89 bc 85 16 cb bd
       0.028366992 -0.2510859 -0.016767494 -0.09916405
000350 59 c2 43 3e b9 be e4 be 47 c0 5d 3d 87 4a c0 bd
       0.19117106 -0.4467676 0.054138448 -0.09389215
000360 6a c1 7e 3c 21 20 8e be 4e 5e 7d be 81 f5 a5 bd
       0.015549043 -0.27758887 -0.24743006 -0.08103467
000370 41 9e 96 be e1 87 03 be 82 a0 cd 3e ad 7e 1f bc
       -0.29417613 -0.12844802 0.4016152 -0.009734792
000380 07 d0 0f 3e fd 91 3c be 01 66 0c 3d b0 2a d1 bd
       0.140442 -0.18415065 0.034276966 -0.1021322
000390 46 b6 97 3d fa a9 a3 3d c4 a4 ac bb 96 1b 3b bd
       0.07407813 0.07991405 -0.005268665 -0.045680605
0003a0 fe 04 03 bd 11 6a 09 be ef ae 52 be a8 2f 86 bd
       -0.031987183 -0.13419367 -0.20574544 -0.065520585
0003b0 1a 32 83 3e 0b 4f d5 3b 3a 6a a2 3d 81 42 16 3c
       0.25624162 0.006509667 0.07930417 0.009171129
0003c0 53 d4 b8 3c a1 cc 1f 3e ed 0f 35 bc 71 a5 b0 be
       0.022562182 0.15605403 -0.01105116 -0.34501222
0003d0 8f 6f 63 3e e5 cd 15 3e d2 fd ff 3c b7 fb 2c bd
       0.22210525 0.14629324 0.03124896 -0.04223224
0003e0 7c 45 29 be b8 5a 29 3e 45 80 07 3e 14 b8 1c bd
       -0.16530412 0.16538513 0.13232525 -0.038261488
0003f0 bb 64 a9 3d e8 61 9e 3d 73 89 9c bd 21 c3 33 bc
       0.08271166 0.07733518 -0.07643404 -0.010971815

blocks.0.0.weight f4 [32, 32, 3]
000000 dd 07 02 80 11 36 75 3e 28 9a 00 80 94 6a 03 80
       -1.86492e-40 0.23946406 -5.5301e-41 -3.1374e-40
000010 84 10 9b 3d 15 d9 00 00 a4 87 02 80 38 bc f6 3d
       0.075715095 7.7874e-41 -2.3233e-40 0.12047619
000020 1a 8b 03 00 f8 0b 00 00 1b 36 f1 bd c2 56 02 00
       3.25407e-40 4.294e-42 -0.11777898 2.14794e-40
000030 c3 aa 04 80 dc 56 46 be 16 74 02 80 7b 6a 03 80
       -4.286e-40 -0.19369072 -2.25315e-40 -3.13704e-40
000040 10 04 71 be aa 07 03 80 ce 04 02 00 f8 32 2f bd
       -0.23536706 -2.78256e-40 1.85395e-40 -0.042773217
000050 54 a8 02 00 ec e4 04 00 a0 99 8a be 06 12 06 00
       2.44056e-40 4.49464e-40 -0.27070332 5.57479e-40
000060 43 e8 05 80 9d cd e1 bd 8d 04 00 80 a5 ef 02 00
       -5.42497e-40 -0.11025546 -1.633e-42 2.69639e-40
000070 3b 29 3d bd b4 f7 01 80 ef d2 01 00 cb 54 ea be
       -0.0461819 -1.80695e-40 1.67504e-40 -0.45767817
000080 00 d2 02 80 3f bf 01 00 38 13 73 3e ee 15 01 00
       -2.59005e-40 1.60442e-40 0.237378 9.9702e-41
000090 c9 90 00 80 0b e8 83 be 1e 8e 03 80 7b 6b 04 80
       -5.1939e-41 -0.25762972 -3.26489e-40 -4.05899e-40
0000a0 f2 96 68 3c d5 d6 02 00 83 a4 00 80 d2 38 51 be
       0.014196144 2.60738e-40 -5.9016e-41 -0.20431831
0000b0 11 bd 05 80 c8 29 03 80 2d ae 10 be 24 a5 00 00
       -5.27002e-40 -2.90495e-40 -0.14128943 5.9241e-41
0000c0 4f 9d 03 00 0b ff c6 3d d5 a7 03 80 1e a8 01 00
       3.31938e-40 0.09716614 -3.35713e-40 1.52145e-40
0000d0 2e b5 d4 bc 70 b2 05 00 7a 76 02 80 81 e8 08 be
       -0.0259653 5.23189e-40 -2.26172e-40 -0.13369943
0000e0 d0 91 02 00 c3 6f 03 00 87 7e 74 3e c4 cb 02 80
       2.35979e-40 3.15599e-40 0.23876391 -2.56768e-40
0000f0 30 11 06 80 38 cf 71 be 2f cf 01 00 14 77 03 00
       -5.57179e-40 -0.23614204 1.66159e-40 3.18224e-40
000100 c3 28 7b be 0b 13 01 00 ba b2 01 80 0d 1e fa 3d
       -0.24527268 9.8667e-41 -1.5595e-40 0.12212763
000110 7c df 05 00 90 0a 02 00 c2 91 88 be 4a 5f 06 80
       5.39349e-40 1.8746e-40 -0.26673704 -5.85196e-40
000120 1a 7f 03 80 66 fb 16 3e f4 1f 02 00 f6 30 02 80
       -3.21102e-40 0.14744338 1.95134e-40 -2.01235e-40
000130 ca bd 8a be 92 17 01 00 44 dc 00 80 df 6b 8c be
       -0.27097923 1.00291e-40 -7.9016e-41 -0.2742605
000140 b9 99 06 80 a2 7e 02 00 b4 55 4b 3e e2 66 00 00
       -6.06158e-40 2.29098e-40 0.19856912 3.6907e-41
000150 13 57 00 80 33 3c 0e 3d 05 77 04 80 eb 12 00 00
       -3.1236e-41 0.03472538 -4.10038e-40 6.786e-42
000160 1c c9 d5 be e2 9c 00 00 95 87 04 80 26 d6 72 3c
       -0.41754997 5.6279e-41 -4.1598e-40 0.014821565
000170 84 e8 02 80 70 70 02 80 9c a7 0c 3e 8e 35 02 00
       -2.67082e-40 -2.24006e-40 0.13735813 2.02883e-40
000180 e6 35 04 80 a2 44 93 3d 45 80 00 80 5d 85 02 80
       -3.86677e-40 0.07190825 -4.6014e-41 -2.31513e-40
000190 64 ec 15 3e 5e 4f 06 00 fb 08 02 00 5b cf 08 3e
       0.14640957 5.79485e-40 1.86893e-40 0.1336035
0001a0 eb fa 01 00 c0 3b 03 00 85 d1 85 3e 17 25 06 00
       1.81848e-40 2.96941e-40 0.26136413 5.64318e-40
0001b0 d3 37 00 80 85 9e 50 be 49 1e 02 80 ff 0a 04 00
       -2.0026e-41 -0.2037297 -1.94535e-40 3.71287e-40
0001c0 76 17 af be e7 ff 00 80 61 e5 00 80 ea e8 bd 3d
       -0.34197587 -9.18e-41 -8.2286e-41 0.092729405
0001d0 b1 f7 00 00 cd fd 02 80 54 bf e1 bc 4e 26 00 00
       8.8855e-41 -2.74718e-40 -0.027557053 1.3741e-41
0001e0 06 a2 02 00 73 4b b2 3e 67 72 06 80 97 f3 02 80
       2.41794e-40 0.34823188 -5.92053e-40 -2.71055e-40
0001f0 f8 7a 0b 3b cc 96 03 00 98 17 01 00 74 dd 97 be
       0.0021283012 3.29602e-40 1.003e-40 -0.29661143
000200 1e d0 02 80 e6 b5 03 80 6b a2 5d 3d 9c f8 05 80
       -2.5833e-40 -3.4076e-40 0.054109972 -5.48362e-40
000210 94 48 03 00 03 f8 3b be 04 ae 02 00 97 49 03 80
       3.01543e-40 -0.18356328 2.46096e-40 -3.01906e-40
000220 96 0b 64 3c 21 2b 02 00 39 2e 02 80 96 78 03 be
       0.013918778 1.99143e-40 -2.00253e-40 -0.12838969
000230 22 e3 00 00 e7 97 02 80 84 ff 26 be 37 f8 01 00
       8.148e-41 -2.38163e-40 -0.16308409 1.80878e-40
000240 83 4f 03 80 bd 81 62 3e 7c c5 05 00 37 76 03 00
       -3.0403e-40 0.22119804 5.30022e-40 3.17914e-40
000250 dc 6c 3b be f0 e9 02 00 5c 19 04 80 1b cf d1 bd
       -0.18303245 2.67592e-40 -3.76439e-40 -0.1024458
000260 ff 60 01 80 34 af 04 80 c1 b8 c8 3d e1 30 01 00
       -1.26631e-40 -4.30193e-40 0.09800864 1.0937e-40
000270 fb 3f 03 00 4f 2b 9c be 23 1c 01 00 77 7e 01 00
       2.98458e-40 -0.30501792 1.01929e-40 1.37203e-40
000280 24 7b 51 be e3 35 02 00 a8 0e 06 80 78 61 11 3e
       -0.2045713 2.03002e-40 -5.5627e-40 0.14197338
000290 39 2c 03 00 4e 25 00 00 e3 ef 83 be 9e d6 04 00
       2.9137e-40 1.3382e-41 -0.25768957 4.44332e-40
0002a0 bf 1a 03 80 7c 27 a5 3e c2 60 01 00 c5 fc 02 00
       -2.85101e-40 0.32256687 1.26546e-40 2.74348e-40
0002b0 5b 4c 72 be 08 67 00 80 bf 5d 00 80 77 41 1c be
       -0.2366194 -3.696e-41 -3.363e-41 -0.15259348
0002c0 27 c6 05 00 e7 0f 06 00 f1 8a 5f 3e 9c a9 00 80
       5.30261e-40 5.56718e-40 0.21830346 -6.0844e-41
0002d0 a9 fe 02 00 19 26 2a 3e f7 fb 05 80 4e c3 02 00
       2.75026e-40 0.16616096 -5.49565e-40 2.53733e-40
0002e0 44 eb 79 bd 45 11 04 00 34 26 05 80 e7 6f 9d be
       -0.061015382 3.73537e-40 -4.72882e-40 -0.30749437
0002f0 bf 1e 05 80 a8 80 03 80 01 39 1a 3e d9 23 01 80
       -4.70207e-40 -3.2166e-40 0.15060808 -1.04695e-40
000300 57 66 01 80 fb 55 be 3d 13 00 03 00 5d 31 03 80
       -1.28548e-40 0.09293743 2.75533e-40 -2.93215e-40
000310 f1 3d 2b 3e 36 50 06 80 3f 30 06 80 aa 03 3f 3e
       0.16722848 -5.79787e-40 -5.6832e-40 0.18653741
000320 1f ea 00 00 8f b5 01 00 0a b3 32 be 8d 60 03 00
       8.3987e-41 1.56966e-40 -0.1745111 3.10142e-40
000330 8c f7 02 00 f7 45 5e be aa 85 02 00 fd f4 02 80
       2.72474e-40 -0.21706377 2.3162e-40 -2.71556e-40
000340 09 f6 b5 3e 21 a9 03 00 0a 45 00 00 ce ec 96 3e
       0.35539272 3.36179e-40 2.4767e-41 0.29477543
000350 49 39 06 00 6b 10 00 00 bb ef ab 3d cb e7 00 80
       5.71563e-40 5.89e-42 0.08395334 -8.3152e-41
000360 b7 5e 02 80 c8 de a6 3d 1c 7b 04 00 6a cd 02 80
       -2.17648e-40 0.08147961 4.11505e-40 -2.5736e-40
000370 07 16 4f 3e 1e a8 03 00 3d 8a 06 80 c7 12 87 3e
       0.20223247 3.35816e-40 -6.00604e-40 0.26381513
000380 fc cf 01 00 08 41 06 80 58 0f 31 be 79 98 01 00
       1.66446e-40 -5.74342e-40 -0.1729101 1.46532e-40
000390 b7 02 01 00 d7 6d 5a 3e 54 36 03 80 db ed 00 00
       9.281e-41 0.21330963 -2.94996e-40 8.5326e-41
0003a0 46 0f af 3e 20 7e 02 80 a0 3e 03 80 c9 54 12 be
       0.3419134 -2.28916e-40 -2.97972e-40 -0.14290155
0003b0 37 d3 02 80 a3 bb 02 80 a8 f7 a3 be bb 56 00 80
       -2.5944e-40 -2.50982e-40 -0.32024884 -3.1113e-41
0003c0 30 ab 00 00 7f bb 35 3e 8f 44 01 80 f4 7e 02 00
       6.141e-41 0.17747305 -1.1643e-40 2.29213e-40
0003d0 f0 68 91 bd 88 33 03 00 d2 91 03 00 e0 b7 e6 bd
       -0.07100093 2.93992e-40 3.27817e-40 -0.1126554
0003e0 bb 39 00 80 d0 80 04 00 b8 e1 30 3e 0c f8 02 80
       -2.071e-41 4.13551e-40 0.17273605 -2.72653e-40
0003f0 6e bb 00 00 c4 98 44 3e cb b5 03 00 d4 04 03 80
       6.7237e-41 0.191989 3.40722e-40 -2.77238e-40

blocks.0.0.bias f4 [32]
000000 ec 3c 8c 3a 82 06 39 bc 07 d4 14 bb f6 48 4b bc
       0.0010699308 -0.0112930555 -0.0022709386 -0.012407532
000010 66 62 55 bb 84 41 11 bb fd 98 d7 ba eb 93 cb 3d
       -0.003255987 -0.0022164294 -0.0016448792 0.099403225
000020 28 90 89 ba d1 0d 92 3b 02 01 c1 3a 40 36 91 3a
       -0.0010495232 0.0044572135 0.0014725032 0.001107879
000030 9b f2 55 bc 43 65 87 ba 51 4d 69 3a d4 8f fe 3d
       -0.01305833 -0.0010329861 0.00088997657 0.12429777
000040 39 ab 19 3e 91 60 97 bb 72 df 05 39 ae d7 27 3e
       0.15006723 -0.004619666 0.00012767108 0.16390869
000050 0b 7f a5 bb 8a 57 cc ba 22 0c d4 3b e6 5a 4a bc
       -0.005050545 -0.0015590054 0.006471173 -0.012350773
000060 96 60 fe ba ef e1 54 bb 28 0a ce bb f3 a6 d5 bb
       -0.0019407447 -0.00324833 -0.006287832 -0.006520146
000070 9b 3e 74 ba 4a 61 1f bc 24 fb 85 3b 3e 44 98 bb
       -0.000931719 -0.009727785 0.004088776 -0.004646807

blocks.0.2.weight f4 [32]
000000 0f 14 3d 3f 30 38 34 3f 5f 69 42 3f b4 18 2d 3f
       0.7385873 0.70398235 0.75942034 0.6761582
000010 91 f9 26 3f 8e 4e 2e 3f fe 19 34 3f 85 c5 67 3f
       0.6522456 0.68088615 0.7035216 0.90535766
000020 1d c9 3f 3f 96 2b 35 3f 9d d8 32 3f 42 a6 35 3f
       0.7491625 0.7076963 0.69861776 0.70956814
000030 6f 37 35 3f a1 59 43 3f 38 3e 40 3f 39 8d 64 3f
       0.7078771 0.7630864 0.7509494 0.8927799
000040 a0 06 63 3f 18 c4 33 3f 20 d5 32 3f 85 99 80 3f
       0.88681984 0.7022109 0.6985645 1.004685
000050 38 2e 3e 3f 3a ba 30 3f 46 7f 2e 3f 6b 50 2b 3f
       0.74289274 0.6903416 0.68162954 0.66919583
000060 59 e4 2f 3f 54 91 3b 3f 3d bc 2e 3f ca 90 3b 3f
       0.68707806 0.7326863 0.6825598 0.73267806
000070 f7 bc 42 3f b3 69 31 3f 6d e7 35 3f 41 d5 32 3f
       0.7606959 0.6930191 0.7105625 0.6985665

blocks.0.2.bias f4 [32]
000000 3b 5d 90 3e 45 42 a0 3e 97 2a b3 3e 29 50 9b 3e
       0.2819613 0.3130056 0.3499343 0.30334595
000010 45 87 8f 3e e6 54 9c 3e 5a 9a 8e 3e c9 82 0f 3d
       0.2803289 0.30533522 0.27852136 0.035036836
000020 3a bc 90 3e bc 93 8e 3e 64 18 9a 3e 49 6b 91 3e
       0.28268605 0.27847087 0.30096734 0.28402165
000030 5f 18 a0 3e d5 e8 a3 3e 0d 7a aa 3e d7 fd 96 bc
       0.31268594 0.32013574 0.33296242 -0.018431587
000040 7c c4 19 3d 12 a7 86 3e 87 6f a9 3e 96 94 bc 3a
       0.037540898 0.2629934 0.330929 0.0014387544
000050 85 db a9 3e 03 99 9d 3e d2 a0 95 3e 9a 5b 97 3e
       0.33175293 0.307808 0.2922426 0.29562074
000060 57 2d 8f 3e 3a 07 af 3e 2c 6b 92 3e eb 4b 98 3e
       0.2796428 0.341852 0.2859739 0.2974542
000070 17 62 ab 3e a6 a2 99 3e ef 90 89 3e de 01 97 3e
       0.33473274 0.30006903 0.26868388 0.29493612

blocks.0.2.running_mean f4 [32]
000000 1e 1b 9d 3c cd b0 4b 3c c8 04 8b 3c 43 71 53 3c
       0.01917797 0.012432289 0.016970053 0.012905422
000010 b1 8e 7a 3c 42 e3 85 3c c3 b8 8f 3c 69 20 d0 3d
       0.015292809 0.016343717 0.017544156 0.10162432
000020 35 68 95 3c 90 c6 ad 3c 4a bb 93 3c 8f f3 87 3c
       0.018238166 0.021212846 0.018033642 0.01659563
000030 81 21 42 3c ee 1b 92 3c 37 79 9b 3c 11 af fd 3d
       0.011848808 0.017835584 0.018978698 0.12386907
000040 32 97 19 3e d0 98 82 3c fc d7 98 3c 28 7c 28 3e
       0.14999083 0.015942007 0.018657677 0.16453612
000050 f5 08 87 3c fb 69 88 3c 4f 00 ac 3c 05 ce 4b 3c
       0.016483763 0.016652098 0.02099624 0.012439256
000060 5b a4 88 3c 13 85 80 3c a8 93 82 3c 44 80 7f 3c
       0.016679933 0.015688455 0.015939549 0.015594546
000070 82 e8 8e 3c 62 9a 66 3c 5c ae a4 3c 1f 93 87 3c
       0.017444853 0.014074894 0.020102672 0.016549645

blocks.0.2.running_var f4 [32]
000000 8d 2b 8f 3a 16 3f 4a 3a 2e ac 93 3a 41 22 5b 3a
       0.0010923013 0.0007715089 0.0011266524 0.0008359291
000010 f7 8e 60 3a 20 01 7b 3a 8a b2 88 3a 2d 7f cd 3a
       0.00085662253 0.0009575058 0.0010429185 0.001567816
000020 24 51 94 3a 80 f1 9a 3a b0 7f 8f 3a dc c9 68 3a
       0.0011315686 0.001182124 0.0010948088 0.0008880177
000030 6f a0 4f 3a 90 cf 91 3a ec 48 96 3a 8e 06 ee 3a
       0.000792033 0.001112448 0.0011465824 0.0018159912
000040 61 ec e7 3a e8 d9 7d 3a bc 49 87 3a 79 d7 f5 3a
       0.0017694348 0.00096836546 0.0010321657 0.0018756232
000050 46 2b 85 3a 1b ee 73 3a 08 67 8b 3a 4c 9b 58 3a
       0.0010159991 0.0009305195 0.0010635564 0.0008262887
000060 e2 90 76 3a f2 6e 6d 3a 9e 2f 91 3a f5 bf 82 3a
       0.00094057445 0.00090573647 0.0011076813 0.000997542
000070 14 8e 8f 3a ad 15 85 3a 65 c9 a9 3a 95 d6 8a 3a
       0.0010952377 0.0010153555 0.0012953697 0.0010592515

blocks.1.0.weight f4 [32, 32, 3]
000000 fe a2 04 00 6a df c5 3d 70 39 01 80 95 2e 03 00
       4.25813e-40 0.096617535 -1.1244e-40 2.92217e-40
000010 82 aa 12 be 3e 5f 02 80 3d 57 00 80 4e 23 9e be
       -0.14322856 -2.17837e-40 -3.1295e-41 -0.3088631
000020 d8 26 02 00 9a 90 06 80 e0 8b 02 be 18 2b 04 80
       1.97606e-40 -6.02886e-40 -0.1274867 -3.82801e-40
000030 e7 f4 03 00 10 13 a2 3d 07 54 04 00 56 4e 03 00
       3.63361e-40 0.07913792 3.97485e-40 3.03608e-40
000040 7a ec d8 bd 2d ea 03 80 dc 17 01 80 fc 48 c1 bd
       -0.10591979 -3.59513e-40 -1.00395e-40 -0.09437749
000050 28 86 01 80 22 11 01 00 00 2d 91 be 6c 49 01 80
       -1.39962e-40 9.7982e-41 -0.28354645 -1.18174e-40
000060 c4 e4 02 80 f4 d0 80 3d c0 12 02 00 11 f2 04 80
       -2.65737e-40 0.06289855 1.90397e-40 -4.54179e-40
000070 31 d4 e1 3d 0b 1a 01 80 38 d0 02 80 41 36 0e be
       0.110268004 -1.01178e-40 -2.58366e-40 -0.13887884
000080 57 9f 01 80 bf 02 00 00 f4 86 ee 3c 98 fd 01 00
       -1.48996e-40 9.85e-43 0.029117085 1.82808e-40
000090 21 96 05 00 79 93 7a 3d da 63 02 00 4d 03 03 00
       5.13034e-40 0.061175797 2.19491e-40 2.7669e-40
0000a0 4f 2f fd 3d de f1 01 80 17 8e 03 80 d4 08 1b 3e
       0.12362539 -1.78601e-40 -3.26479e-40 0.15140086
0000b0 0b 38 01 00 86 ad 00 00 16 7c fe bd b2 ab 00 00
       1.1194e-40 6.2248e-41 -0.12426011 6.1593e-41
0000c0 1f 23 02 00 d5 78 22 be 98 90 02 80 3a 0a 03 00
       1.9627e-40 -0.15866406 -2.35541e-40 2.79175e-40
0000d0 bb fd 00 3e 68 aa 05 80 54 71 00 00 51 c8 9c bd
       0.1259679 -5.20308e-40 4.0654e-41 -0.07655395
0000e0 32 1e 02 80 24 cc 02 00 ad 63 36 be e0 d3 01 80
       -1.94503e-40 2.56903e-40 -0.17811461 -1.67842e-40
0000f0 d8 26 00 80 14 3e 84 3e 7c cd 05 80 af 50 03 00
       -1.3935e-41 0.25828612 -5.32891e-40 3.0445e-40
000100 00 db f6 3d c0 0f 03 00 29 e1 05 00 36 b3 3e bd
       0.1205349 2.81157e-40 5.3995e-40 -0.046557628
000110 3f 07 03 00 07 33 06 00 fb 57 24 3e f0 2a 03 00
       2.78106e-40 5.69318e-40 0.16049187 2.9091e-40
000120 fb 27 02 00 13 6f f6 3c 7f 64 01 00 77 b3 04 80
       1.98013e-40 0.030082261 1.27887e-40 -4.31722e-40
000130 40 4d 09 bd 4b e0 00 00 d0 4b 00 80 a1 e8 f2 3d
       -0.033520937 8.0461e-41 -2.7196e-41 0.11860777
000140 7e 09 02 00 b8 07 02 80 c6 8b 58 3d 41 ce 01 00
       1.87076e-40 -1.8644e-40 0.052867673 1.65825e-40
000150 d2 6f 00 00 5a 70 93 be 31 af 02 80 a7 4f 03 80
       4.0114e-41 -0.28796655 -2.46518e-40 -3.0408e-40
000160 eb 89 e2 3d b9 1b 00 00 6b 8b 03 80 f9 1c 8d bd
       0.11061462 9.945e-42 -3.2552e-40 -0.06890292
000170 30 50 06 80 04 d6 01 00 88 75 11 3b 01 d7 02 80
       -5.79779e-40 1.6861e-40 0.0022195298 -2.608e-40
000180 e0 6b 03 80 d8 2c c2 3d 41 da 05 00 26 e4 01 80
       -3.14205e-40 0.094812095 5.37472e-40 -1.7368e-40
000190 92 76 f2 3d 53 65 00 00 91 1e 00 80 83 ee 78 3e
       0.11839022 3.6348e-41 -1.0965e-41 0.24309735
0001a0 2e 42 00 80 d5 a8 01 00 be 59 8b 3a 51 ca 00 00
       -2.3741e-41 1.52401e-40 0.0010631604 7.2577e-41
0001b0 14 ba 05 00 5f 36 48 3e 8c 41 03 80 bf 17 03 00
       5.2593e-40 0.19551991 -2.9902e-40 2.84025e-40
0001c0 3e 7d 54 bc d2 de 01 00 ef dc 04 00 6e 20 e2 3c
       -0.012969313 1.71768e-40 4.46598e-40 0.027603354
0001d0 cf ea 04 00 60 f4 04 80 a3 a8 ac bd 74 c0 04 00
       4.51575e-40 -4.55007e-40 -0.084306024 4.36381e-40
0001e0 56 17 02 80 77 c5 77 3d 88 e4 04 80 23 11 01 80
       -1.92042e-40 0.06049105 -4.49324e-40 -9.7983e-41
0001f0 68 0b 2c 3e 02 67 00 80 d5 c3 02 80 d5 80 00 3e
       0.16801226 -3.6952e-41 -2.53922e-40 0.12549146
000200 cc ea 02 00 7e c3 03 00 e8 c8 08 3d 7d 93 03 00
       2.679e-40 3.45636e-40 0.033394724 3.28415e-40
000210 35 9b 04 00 ae c6 1d 3d 86 3d 01 80 d4 c9 01 00
       4.2302e-40 0.038519554 -1.13906e-40 1.64238e-40
000220 ac 9b 67 3c 89 31 04 80 9e 4a 04 00 08 e9 03 bd
       0.014136236 -3.85112e-40 3.9411e-40 -0.032204658
000230 29 ad 02 80 93 1e 04 00 03 15 75 3e 36 79 00 80
       -2.45789e-40 3.7831e-40 0.23933797 -4.3482e-41
000240 e1 6e 03 00 b8 03 4c be c2 45 00 80 7e ba 03 00
       3.15282e-40 -0.19923294 -2.5024e-41 3.42407e-40
000250 28 a1 de 3d 9b ae 01 80 5d ac 00 80 14 78 08 3e
       0.10870582 -1.54472e-40 -6.1832e-41 0.13327056
000260 d0 b4 02 00 46 89 06 80 e9 95 75 3e c1 6e 01 00
       2.48534e-40 -6.00257e-40 0.23982967 1.31567e-40
000270 fb 15 03 00 71 91 1d 3e e0 7f 01 80 bf 68 00 80
       2.83392e-40 0.15387513 -1.37708e-40 -3.7576e-41
000280 ea 63 9e ba 34 55 01 00 7b 82 02 80 9f 51 38 3d
       -0.001208422 1.224e-40 -2.30479e-40 0.044999715
000290 b5 2e 03 00 fe 83 03 00 38 17 0b 3e 1f 5c 06 80
       2.92262e-40 3.22856e-40 0.13583076 -5.8406e-40
0002a0 c7 34 01 00 68 8b 1d 3e fb 20 03 80 57 42 03 80
       1.10768e-40 0.1538521 -2.87338e-40 -2.99305e-40
0002b0 85 0a a6 b9 8f b9 05 80 75 a5 00 80 05 86 b6 3c
       -0.00031669825 -5.25743e-40 -5.9355e-41 0.022280702
0002c0 32 a7 03 80 ba 1d 04 80 54 bf ce 3d d2 2c 03 00
       -3.35485e-40 -3.78006e-40 0.10095087 2.91585e-40
0002d0 e2 aa 05 80 fc 21 fa 3c 14 95 01 80 55 b8 01 00
       -5.20479e-40 0.030533783 -1.45315e-40 1.57961e-40
0002e0 1f 65 fd 3d 56 a0 00 00 91 9a 03 80 f1 23 e0 3d
       0.12372803 5.7518e-41 -3.30954e-40 0.10944355
0002f0 eb 45 06 80 be 2d 06 80 93 32 e0 3d 6b 14 04 00
       -5.76095e-40 -5.67422e-40 0.10947146 3.74667e-40
000300 e9 52 02 80 a2 a1 f4 3d 18 4d 03 00 3c 71 04 00
       -2.13414e-40 0.119448915 3.03163e-40 4.07963e-40
000310 14 60 3b 3e 40 f3 00 80 ec e3 02 80 2f 61 20 3e
       0.1829837 -8.7262e-41 -2.65434e-40 0.15662073
000320 7a fb 05 00 7b 93 03 80 f5 cf aa 3d 1c c8 00 80
       5.4939e-40 -3.28413e-40 0.08340446 -7.1786e-41
000330 1a 89 02 00 2c fa ae 3d 4b df 00 80 fa 80 00 00
       2.32854e-40 0.0854381 -8.0102e-41 4.6268e-41
000340 dc 8c f4 3d 8c 93 03 80 38 c6 01 80 1e bb 18 3e
       0.11940929 -3.28436e-40 -1.62943e-40 0.1491513
000350 80 55 02 80 ed 4f 01 00 c2 b7 4a bc a0 e4 03 80
       -2.14343e-40 1.20507e-40 -0.012372913 -3.57522e-40
000360 75 19 02 80 67 a9 0c 3e 7d 28 01 00 b6 d2 04 80
       -1.92803e-40 0.13736497 1.0636e-40 -4.42931e-40
000370 e4 0a 04 3e bc fc 04 00 a6 d1 01 00 f2 1e 30 3e
       0.1289478 4.58006e-40 1.67043e-40 0.17199305
000380 3a bb 01 80 2f 03 01 00 80 50 9a 3d 81 96 02 00
       -1.59e-40 9.2978e-41 0.075348854 2.37662e-40
000390 8e 8c 03 80 7d a7 af 3d fd 5b 03 00 37 b9 02 80
       -3.25928e-40 0.08576868 3.08506e-40 -2.50114e-40
0003a0 ed 25 0d 3e 54 98 03 80 75 1b 02 80 28 61 cf 3d
       0.13783999 -3.30152e-40 -1.93521e-40 0.10125953
0003b0 71 5d 04 00 cb 14 03 80 20 cc 4e 3b 7c 78 04 00
       4.00862e-40 -2.82966e-40 0.0031554773 4.10564e-40
0003c0 fa 42 03 80 79 47 2a bb ad fe 02 80 93 77 00 00
       -2.99533e-40 -0.0025982542 -2.75031e-40 4.2895e-41
0003d0 fe 72 ae 3d 0e bb 02 80 47 c2 01 00 69 ab d4 3d
       0.08518027 -2.50774e-40 1.61529e-40 0.103842564
0003e0 05 ee 03 00 c4 c7 02 80 75 30 ba bb 8a 8d 01 80
       3.60892e-40 -2.55333e-40 -0.005682046 -1.4261e-40
0003f0 95 e8 01 00 7d c4 a8 3d 85 51 04 80 4c f6 02 80
       1.7527e-40 0.08240602 -3.96586e-40 -2.72026e-40

blocks.1.0.bias f4 [32]
000000 75 92 31 3c f1 6f f8 3d 62 5b fc 3e 67 16 8d bc
       0.010838141 0.12130726 0.4928847 -0.017222596
000010 d3 d8 c5 3e b1 1b be 3e 67 b6 7e bd d4 bc af 3e
       0.38641986 0.37130502 -0.06218567 0.34323752
000020 00 e7 15 3e 7b 52 b7 bd 74 65 8f bd c8 31 5d 3e
       0.14638901 -0.08951279 -0.070017725 0.21601021
000030 da 3d 71 bb 79 8b ce bc 88 7b 2f 3c 0c 8a e9 3b
       -0.0036810548 -0.02521299 0.0107106045 0.007127052
000040 cf b2 ad 3d 7e d8 da 3e 0f da d8 3e ef 77 c4 3d
       0.08481371 0.42743295 0.42353866 0.09593188
000050 02 87 f7 3e 87 74 8d 3c ad d4 7a bd 9e 1a eb 3c
       0.4834519 0.017267479 -0.06123798 0.028699216
000060 9e b0 0c 3e 72 71 f5 3e 8f df 7d 3d b3 82 8d 3e
       0.13739249 0.47938114 0.06198078 0.27638778
000070 c6 9e 6f 3b 11 a2 68 3e e1 a0 98 3e 83 9f a6 3c
       0.0036563142 0.22718073 0.2981024 0.020339733

blocks.1.2.weight f4 [32]
000000 69 ff e7 3e c6 dc eb 3e 8e d4 0c 3f fb 1e e6 3e
       0.4531205 0.46066874 0.5501183 0.4494551
000010 34 07 ff 3e 7a f1 e9 3e ee 63 df 3e 9a a2 0f 3f
       0.49810183 0.45692044 0.43630928 0.56107485
000020 dc 7d e0 3e ee 1a c4 3e 63 63 11 3f c5 68 ea 3e
       0.43846023 0.38301796 0.5679228 0.45783058
000030 15 fa de 3e 90 49 d9 3e 3f 32 f2 3e 07 c0 05 3f
       0.43550172 0.42438936 0.4730396 0.52246135
000040 08 b4 de 3e 74 94 10 3f ee de f8 3e 41 5a e7 3e
       0.43496728 0.5647652 0.48607582 0.45186046
000050 71 5f f9 3e c7 1d f8 3e a0 31 ca 3e 92 6c fb 3e
       0.4870563 0.48460218 0.39490986 0.4910627
000060 82 0d f8 3e dc 94 d6 3e 55 67 e0 3e 4a 23 e8 3e
       0.48447806 0.41910446 0.43828836 0.45339423
000070 bd 17 ea 3e 72 08 e2 3e b3 e3 d5 3e ff 6e ea 3e
       0.45721236 0.44147068 0.41775283 0.45787808

blocks.1.2.bias f4 [32]
000000 d4 39 48 3e 79 a4 96 3e 20 4e d4 3e 96 6e 3b 3e
       0.1955331 0.29422358 0.41465855 0.18303904
000010 98 52 bd 3e 48 f0 b7 3e f1 6c 10 3e 4b 82 5d 3e
       0.36977077 0.35925508 0.14104058 0.21631734
000020 8f d9 8e 3e 23 e5 14 3e c3 db 0b 3e aa 0c a5 3e
       0.2790036 0.14540534 0.13658051 0.32236224
000030 03 76 39 3e 73 8f 41 3e 76 1e 4e 3e d7 ad 08 3e
       0.18111424 0.18902378 0.20128807 0.13347565
000040 50 dc 85 3e 49 ef cd 3e 8d 0d ac 3e 52 4a 91 3e
       0.26144648 0.40221623 0.33604088 0.28377014
000050 4a 2d ca 3e cc e6 83 3e e9 90 38 3e 8d 14 5f 3e
       0.39487678 0.25762022 0.18024029 0.21785183
000060 b9 c0 8e 3e 24 5a a5 3e 64 69 4b 3e 19 d2 ab 3e
       0.2788141 0.32295334 0.19864422 0.3355873
000070 9f e1 4f 3e c0 16 92 3e 4e 93 9b 3e b8 a6 3a 3e
       0.20300911 0.28532982 0.30385822 0.1822766

blocks.1.2.running_mean f4 [32]
000000 9f 55 84 3e 69 f9 57 3f ce 2d c0 3f 12 9b b8 3e
       0.25846574 0.84364945 1.5013978 0.3605581
000010 39 c6 b2 3f c1 83 b0 3f 9c 56 8a 3e 19 c6 21 3e
       1.3966743 1.3790208 0.27019203 0.15798225
000020 a3 b9 5e 3f 16 4d 95 3e 66 20 37 3d 57 30 8f 3f
       0.8700201 0.29160374 0.044708632 1.1186627
000030 c3 db cb 3e 43 10 a7 3e 2d 0d f9 3e f0 a8 80 3d
       0.39816102 0.32629594 0.48642865 0.06282222
000040 97 ca 1f 3f 77 00 bd 3f 49 88 b3 3f d8 49 16 3f
       0.624185 1.4765767 1.4025966 0.58706427
000050 74 86 bf 3f 65 a0 18 3f 87 cd 98 3e f6 c0 d1 3e
       1.4962907 0.5961974 0.29844305 0.4096753
000060 09 8d 56 3f 24 cc b9 3f fd c1 1e 3f 87 a0 9d 3f
       0.8380895 1.4515424 0.6201475 1.2314614
000070 8a 98 e6 3e cc 13 94 3f bb bf 99 3f 73 50 e1 3e
       0.45038253 1.1568542 1.2011636 0.4400669

blocks.1.2.running_var f4 [32]
000000 59 c7 7a 3e c7 59 92 3f a9 85 e0 3f ef f6 d8 3e
       0.24490108 1.1433648 1.754079 0.42375895
000010 ed ad da 3f 4e 1c d8 3f 5d a8 96 3e 5c 7f 62 3d
       1.7084328 1.6883638 0.29425326 0.05529724
000020 01 e8 83 3f 11 bf a9 3e de 1c 41 3c aa e4 be 3f
       1.0305177 0.33153585 0.011786668 1.4913533
000030 9c 4a e1 3e be 5f b9 3e fb ff 04 3f c3 57 97 3c
       0.44002235 0.36205858 0.51953095 0.018474465
000040 cd 16 35 3f 84 0f ec 3f 07 65 ca 3f 90 d9 2c 3f
       0.70737916 1.8442235 1.5812081 0.67519474
000050 aa bb d9 3f 98 a2 35 3f d8 0c a6 3e 94 d1 c6 3e
       1.7010396 0.70951223 0.32431674 0.3883177
000060 20 8a 85 3f 1d 77 cb 3f 97 c3 35 3f 0b 59 cd 3f
       1.0432777 1.5895725 0.7100157 1.6042799
000070 44 01 fb 3e 9d 55 c6 3f f7 9d bb 3f cb 86 ec 3e
       0.49024403 1.5494877 1.4657582 0.4619659

blocks.2.0.weight f4 [32, 32, 3]
000000 45 b4 01 00 f7 91 c9 3c 23 e8 03 00 39 66 00 80
       1.56504e-40 0.024605734 3.58781e-40 -3.667e-41
000010 5f 4c 3f 3d 1f 76 01 00 83 dd 02 00 b4 59 a3 3a
       0.046703693 1.3421e-40 2.63134e-40 0.0012462647
000020 a5 75 04 80 e0 81 01 80 98 ef 4d 3c 66 0a 00 80
       -4.09545e-40 -1.38426e-40 0.012569331 -3.73e-42
000030 3e 74 03 80 f6 7b 9c 3a 42 29 06 80 cd f7 02 00
       -3.17206e-40 0.0011938799 -5.65813e-40 2.72565e-40
000040 47 f1 21 3d 30 99 03 80 9c 2a 02 00 7d c0 23 3d
       0.03953674 -3.3046e-40 1.98956e-40 0.039978493
000050 6b a0 02 80 bb a0 01 00 57 50 48 be 2b e7 03 80
       -2.41218e-40 1.49495e-40 -0.19561897 -3.58434e-40
000060 8e d8 00 00 f7 df 9f 3d cc d6 00 80 70 81 04 80
       7.7685e-41 0.0780639 -7.7055e-41 -4.13775e-40
000070 c9 0d 31 3d 37 c5 02 80 b1 9c 01 80 35 4f 5b be
       0.043226037 -2.54418e-40 -1.48046e-40 -0.21416934
000080 f5 79 02 80 1c b3 01 00 6f 43 31 3c 0b 3d 05 00
       -2.27421e-40 1.56088e-40 0.0108193 4.81076e-40
000090 a6 8b 03 00 1b bb bd 3c f4 ed 02 80 9a 1c 02 00
       3.25603e-40 0.023160508 -2.69032e-40 1.93931e-40
0000a0 f4 e9 9d 3d 67 f9 00 00 ee 33 02 00 81 8c 15 bd
       0.07710639 8.9469e-41 2.023e-40 -0.036510948
0000b0 72 c5 01 80 49 6c 00 00 2f 10 7b be 30 d9 05 00
       -1.62666e-40 3.8845e-41 -0.24517892 5.3709e-40
0000c0 66 b3 00 00 7b be 0c 3c f0 2f 02 80 49 69 03 00
       6.4356e-41 0.008590336 -2.00868e-40 3.13276e-40
0000d0 66 d3 1e 3d b1 cf 05 00 c0 7c 00 00 67 ec 86 ba
       0.038775824 5.33683e-40 4.4752e-41 -0.0010293842
0000e0 25 39 00 80 24 0b 00 00 8e 7b 8d 3c cc 32 04 00
       -2.05e-41 3.997e-42 0.01727083 3.85564e-40
0000f0 1d 6f 03 00 1b 9b fc 3c 86 fe 05 00 44 63 06 00
       3.15366e-40 0.030835679 5.50483e-40 5.86623e-40
000100 1e 09 14 3d 83 5e 06 00 d2 c4 05 00 00 1f 53 3b
       0.036141507 5.84917e-40 5.29783e-40 0.0032214522
000110 54 b7 05 00 c2 a1 02 00 bb a8 bd bc f9 bf 04 80
       5.24943e-40 2.41699e-40 -0.023151746 -4.36209e-40
000120 5a d3 00 00 e1 f4 97 3c de 63 00 80 02 3d 05 00
       7.5819e-41 0.018549385 -3.5826e-41 4.81063e-40
000130 96 a7 63 bd c7 35 01 00 24 da 01 00 f2 4c 1d 3d
       -0.055579744 1.11127e-40 1.7009e-40 0.03840346
000140 28 db 05 00 fa bd 00 00 ed 69 3d 3d 64 b0 01 00
       5.37796e-40 6.8151e-41 0.046243597 1.55113e-40
000150 14 1a 00 80 d5 16 d3 3b 7f 9d 01 00 c7 07 01 80
       -9.355e-42 0.006441931 1.48334e-40 -9.4625e-41
000160 3d be cd 3c 64 26 04 80 52 84 01 80 c3 39 9e 3d
       0.025115127 -3.81114e-40 -1.39303e-40 0.07725861
000170 3c b2 02 80 69 26 02 00 f5 66 30 bb f6 42 01 80
       -2.4761e-40 1.9745e-40 -0.0026916836 -1.15857e-40
000180 37 5f 06 80 63 cc fb 3c ba 99 05 00 26 72 03 00
       -5.8517e-40 0.030737108 5.14324e-40 3.16455e-40
000190 d1 15 b4 3d 96 1a 01 00 3c 94 04 00 c6 38 a2 3c
       0.08793224 1.01373e-40 4.20518e-40 0.019802462
0001a0 de c5 04 80 70 bb 00 80 d5 cf ee bc bf 6c 02 00
       -4.38323e-40 -6.724e-41 -0.029151836 2.22682e-40
0001b0 32 b9 03 00 00 01 88 bc b0 82 00 00 bc 3a 03 00
       3.41942e-40 -0.01660204 4.6882e-41 2.96576e-40
0001c0 2a 27 8b 3d a0 84 02 80 f6 f3 01 80 77 72 55 be
       0.06794579 -2.31248e-40 -1.79352e-40 -0.20844446
0001d0 31 24 06 00 62 ce 02 80 90 d0 37 be c8 5e 01 00
       5.63996e-40 -2.57707e-40 -0.17950654 1.25837e-40
0001e0 7e 4b 06 80 79 d1 06 3d 0d 55 02 80 bc c0 04 80
       -5.78094e-40 0.032914612 -2.14181e-40 -4.36482e-40
0001f0 dd 41 28 3d d8 e6 03 00 6a 9d 01 00 97 99 77 be
       0.041078437 3.58318e-40 1.48305e-40 -0.24179684
000200 b7 c6 01 00 b2 39 06 00 73 7e 19 3d e7 12 00 00
       1.63121e-40 5.7171e-40 0.037474107 6.781e-42
000210 5d 7a 01 80 f6 73 86 3d 15 24 00 80 a7 bb 00 80
       -1.35731e-40 0.065650865 -1.2944e-41 -6.7317e-41
000220 dd f1 fe bb ff 02 00 00 88 bd 02 00 97 d8 d1 3a
       -0.007780297 1.075e-42 2.51662e-40 0.0016009983
000230 bb 99 03 80 92 3c 02 80 d7 7a 66 be fd 67 00 80
       -3.30655e-40 -2.054e-40 -0.22507797 -3.7304e-41
000240 c9 4b 04 00 09 41 ca 3d 34 8f 00 80 00 8a 03 80
       3.94529e-40 0.09875686 -5.1372e-41 -3.25012e-40
000250 f4 39 b9 3d f3 3d 06 00 55 b2 02 00 72 5f 4a bc
       0.09044257 5.73236e-40 2.47644e-40 -0.0123518575
000260 a4 ce 01 00 05 82 05 80 c9 1d 1e 3c 55 12 02 80
       1.65964e-40 -5.0582e-40 0.009650656 -1.90247e-40
000270 35 4a 01 00 6e 56 31 3d d2 ed 02 00 cf ec 02 80
       1.18456e-40 0.043295316 2.68985e-40 -2.68622e-40
000280 f2 4a ab bc 9f 30 01 00 67 38 03 80 90 c5 10 3d
       -0.02090976 1.09277e-40 -2.9574e-40 0.03534466
000290 85 7e 02 80 42 c8 01 00 79 9c fd 3d 33 0f 03 80
       -2.29058e-40 1.63674e-40 0.123833604 -2.80959e-40
0002a0 ae de 00 00 7e fa ad 3d 20 8c 06 00 68 77 01 80
       7.9882e-41 0.08495043 6.0128e-40 -1.3467e-40
0002b0 8e 80 a6 bc 91 71 02 00 c1 0f 01 80 58 73 83 3b
       -0.020324972 2.24411e-40 -9.7487e-41 0.004011553
0002c0 40 a2 01 00 7a 39 03 00 72 7e 43 3d 6b 43 00 00
       1.5004e-40 2.96125e-40 0.04772801 2.4185e-41
0002d0 10 f3 01 00 e8 5c 50 3d 2c b8 02 80 77 8a 05 00
       1.7903e-40 0.050869852 -2.4974e-40 5.0885e-40
0002e0 b5 f9 92 3d d4 23 01 80 c8 8d 01 00 42 16 5f 3d
       0.07176534 -1.04688e-40 1.42697e-40 0.054464586
0002f0 48 14 01 80 12 c7 05 00 4a 56 ef 3b d3 13 05 80
       -9.9111e-41 5.3059e-40 0.0073039876 -4.66289e-40
000300 85 3b 00 00 f9 c1 07 be bf b7 02 80 48 12 03 80
       2.1352e-41 -0.13257588 -2.49587e-40 -2.82065e-40
000310 76 b6 9b bd 66 5b 03 80 cd 74 04 00 56 59 6a be
       -0.07603161 -3.08294e-40 4.09242e-40 -0.22885641
000320 de ad 02 00 d8 42 05 80 a2 4d e0 bd 08 e0 02 00
       2.46043e-40 -4.83157e-40 -0.10952307 2.64038e-40
000330 0a c1 01 00 b8 66 49 be 1e 80 01 80 0c 18 05 00
       1.61085e-40 -0.1966809 -1.37795e-40 4.67804e-40
000340 ee f7 3b be 1d 7c 00 80 61 64 06 80 4a 65 4e bd
       -0.18356296 -4.4523e-41 -5.87022e-40 -0.050389566
000350 8b 1f 05 80 6b 42 03 00 b9 30 91 bd f2 00 00 00
       -4.70493e-40 2.99333e-40 -0.07089371 3.39e-43
000360 43 c1 05 80 72 d2 46 bd 33 cd 02 00 e9 49 02 00
       -5.28507e-40 -0.04854054 2.57283e-40 2.10185e-40
000370 c6 00 54 bd f4 cd 02 00 c6 32 04 00 d3 fa c2 3b
       -0.05175855 2.57553e-40 3.85556e-40 0.0059503107
000380 68 70 02 00 e1 62 03 00 c2 33 a8 bd 31 01 02 00
       2.23995e-40 3.10978e-40 -0.08212997 1.84098e-40
000390 e0 17 03 80 67 55 02 be 8e 58 06 00 51 6f 01 80
       -2.84071e-40 -0.12727891 5.8278e-40 -1.31768e-40
0003a0 76 dd 1a be 91 94 00 00 e2 a3 03 80 01 69 e2 bd
       -0.15123543 5.3296e-41 -3.34297e-40 -0.11055184
0003b0 b9 96 03 00 cc 1e 01 00 74 d6 37 bd a8 5c 03 00
       3.29576e-40 1.02883e-40 -0.044882253 3.08745e-40
0003c0 a2 1f 03 80 da a1 09 be 3a 7a 06 80 a2 ac 02 80
       -2.86854e-40 -0.13440648 -5.9486e-40 -2.456e-40
0003d0 dc f7 1a be 3b cc 05 80 dd 20 03 80 63 2a 1f be
       -0.15133613 -5.32442e-40 -2.87296e-40 -0.15543513
0003e0 9c 63 00 80 3b 3c 06 80 00 c2 13 be 78 4d 03 00
       -3.5733e-41 -5.7262e-40 -0.14429474 3.03297e-40
0003f0 21 01 05 00 9b 40 ec bd 6b d3 01 00 6f 29 03 00
       4.59582e-40 -0.1153576 1.67678e-40 2.9037e-40

blocks.2.0.bias f4 [32]
000000 7d 35 37 3f 3f 08 0f 3f 2d 93 eb 3e b2 e8 31 3f
       0.7156599 0.5587196 0.46010724 0.6949569
000010 ef c9 2e 3f c3 1e 5f 3f 66 3d 38 3f 59 40 5a 3f
       0.68276876 0.87156314 0.71968687 0.85254437
000020 d7 4c 78 3f ac 51 77 3f c9 6f 7e 3f ad 12 6b 3f
       0.9699225 0.96608996 0.9938932 0.9182537
000030 88 9f 30 3f d4 69 69 3f 85 b6 3c 3f 90 03 80 3f
       0.68993425 0.91177106 0.73716 1.0001087
000040 e6 2d 8e 3e 65 fa 69 3f 9d eb 7a 3f ad a2 1c 3f
       0.27769393 0.91397697 0.9801577 0.61185724
000050 d4 f3 2c 3f f2 ce 34 3e 1a 8a 7e 3f 86 8d 61 3f
       0.6755955 0.17657068 0.99429476 0.8810657
000060 49 6a 48 3f 52 dd 14 3f e6 12 39 3f 7f f1 4d 3f
       0.7828718 0.5815021 0.7229446 0.8044662
000070 9f 7d 33 3f 81 7d 49 3f 91 e6 64 3f e2 f6 4b 3f
       0.7011356 0.7870713 0.89414316 0.7967359

blocks.2.2.weight f4 [32]
000000 78 a2 b0 be f0 7a 92 be a1 d0 d0 3e da df 7f 3e
       -0.34498954 -0.2860942 0.4078417 0.24987736
000010 be 9c ed 3e ed c7 94 3e b1 1e 95 be 63 06 9e 3e
       0.46408647 0.2905878 -0.29124978 0.30864248
000020 0d 5b a9 be e2 36 8c 3e a2 cf 8c 3e 4c eb 94 3e
       -0.3307728 0.27385622 0.2750216 0.29085767
000030 38 b8 94 3e ed 23 89 3e 3d 30 92 be 02 f4 96 3e
       0.29046798 0.26785222 -0.28552428 0.29483038
000040 f2 92 e6 3e b5 69 85 3e 4e 87 91 3e d5 6e c9 3e
       0.45033985 0.2605721 0.28423542 0.3934237
000050 27 bb 9e be 49 dd de 3e e4 fb 95 3e 8e 42 8f 3e
       -0.3100216 0.43528202 0.2929374 0.27980465
000060 e9 f1 9f 3e e8 2c d8 3e ea 58 98 be 15 d6 8e be
       0.3123925 0.4222176 -0.29755336 -0.27897707
000070 31 d6 9a be d4 47 91 3e a1 4e 91 be 6d 9f 95 3e
       -0.3024154 0.28375113 -0.28380302 0.29223195

blocks.2.2.bias f4 [32]
000000 b2 b9 8c bc 9e 8a cf 3c d4 27 99 bc bd 7a d1 bb
       -0.01717839 0.025334653 -0.01869575 -0.0063928054
000010 85 e7 b1 bb 74 9f 2d 3c 27 f4 cb 3c bf 05 49 3d
       -0.0054292106 0.010597099 0.024896694 0.049077746
000020 93 27 35 bc 17 2f 21 3d 4e 20 38 3d 81 5b 99 bb
       -0.0110567985 0.03935155 0.044952683 -0.0046800976
000030 92 4a 89 3c fb 3a 02 b9 b7 17 39 3b 2c fb 0c bc
       0.01675919 -0.00012419738 0.0028242895 -0.008604806
000040 1c 63 84 bc db a7 89 3c 18 da b6 ba 4a 04 62 3c
       -0.01616054 0.016803673 -0.0013950495 0.013794968
000050 ab 5c 17 bd 86 3e 3f bb 7c 5c e2 3c e9 f6 aa 3b
       -0.03695361 -0.0029181554 0.02763199 0.0052174223
000060 9d 8c a4 3b 31 cc 4f bc 32 93 b7 3c 87 ae a5 bc
       0.005021645 -0.01268296 0.022409055 -0.020224823
000070 e4 2c a1 3c ee a5 da 3c b5 f4 56 bc e1 20 a2 3c
       0.019674726 0.02669045 -0.013119866 0.019791069

blocks.2.2.running_mean f4 [32]
000000 a2 81 55 3f 5a 65 45 3f a6 38 47 3e 92 b9 51 3f
       0.8340093 0.77107775 0.19455203 0.8192378
000010 cd 4c ae 3e 57 0e 6a 3f 3c 68 51 3f 58 13 84 3f
       0.3404297 0.9142813 0.81799674 1.0318403
000020 33 98 88 3f 6b bd 86 3f a3 76 84 3f fe d8 82 3f
       1.0671448 1.0526556 1.0348705 1.0222471
000030 a2 ad 45 3f ec 5e 85 3f 62 3c 6d 3f 87 12 8a 3f
       0.7721807 1.0419593 0.9267026 1.0786904
000040 1b cf bf 3d 60 62 67 3f 5d 39 8e 3f ce 66 92 3e
       0.09365674 0.90384483 1.1111256 0.2859406
000050 fb 45 3e 3f 19 8b ce 3d dd 01 7e 3f d2 ba 86 3f
       0.7432553 0.100851245 0.99221593 1.0525763
000060 f5 45 7b 3f 70 01 81 3e 86 ce 65 3f 50 36 68 3f
       0.9815362 0.2519641 0.89768255 0.90707874
000070 9b 15 66 3f 89 a6 66 3f a0 8d 85 3f 14 e0 69 3f
       0.8987672 0.9009786 1.0433846 0.9135754

blocks.2.2.running_var f4 [32]
000000 13 1f 38 3e a3 6d 87 3e 07 4c 81 3d 94 29 48 3e
       0.17980604 0.26450834 0.06313329 0.19547111
000010 b7 ff c9 3d 99 a5 d3 3d a8 92 27 3e 6c 32 3f 3e
       0.09863227 0.103343196 0.16364539 0.18671578
000020 50 c9 f7 3d e4 47 e7 3d 5f 54 b4 3d 12 1c ff 3d
       0.12098944 0.11293009 0.08805155 0.12456526
000030 ed 4f 24 3e 39 f1 1a 3e f6 6c 82 3e 18 ad 00 3e
       0.16046114 0.15131082 0.25473756 0.1256603
000040 fe 61 d0 3c b0 c0 7d 3d 30 1c 0f 3e c1 85 c4 3d
       0.025437351 0.06195134 0.13975596 0.09595824
000050 ad 9f 17 3e ff 63 00 3d 06 a6 a3 3d d0 bb 55 3e
       0.14807005 0.031345364 0.07990651 0.20872426
000060 af 7d 6c 3e 58 07 a1 3d 12 bb 7f 3e 01 a8 09 3e
       0.2309482 0.07862729 0.24973705 0.13442995
000070 69 cc 8a 3e 9e 8a 40 3e b8 27 33 3e 59 76 4c 3e
       0.27109078 0.18802878 0.1749562 0.19967021

fc.weight f4 [1, 32]
000000 91 79 78 bd 5d e3 73 bd a5 4b f9 bd 57 61 60 3d
       -0.06066281 -0.059543002 -0.12172631 0.05478033
000010 18 f2 e3 bd eb e4 9d 3d 44 b2 76 bd aa f7 5f 3d
       -0.1113016 0.07709678 -0.0602286 0.05467955
000020 d4 57 5f bd e8 0d 93 3d 9c b0 8f 3d 6a 7b 5c 3d
       -0.05452712 0.07180387 0.070161074 0.053828634
000030 bd f5 3c 3d 49 c2 50 3d f3 39 95 bd 59 c0 67 3d
       0.04613279 0.050966535 -0.072864436 0.05657992
000040 de 91 db bd a2 1d 74 3d a0 70 84 3d 92 36 f7 bd
       -0.10721181 0.059598573 0.06466794 -0.12070955
000050 99 e2 3a bd 73 04 ef bd 93 9e ae 3d ef 00 49 3d
       -0.045626257 -0.116707705 0.085263394 0.049073156
000060 5d a6 73 3d 85 cd f8 bd ee 23 9a bd 40 f6 6d bd
       0.05948483 -0.12148575 -0.07526384 -0.05809617
000070 b7 ef 7e bd a3 39 3e 3d 2c 80 57 bd 19 80 96 3d
       -0.06224033 0.046441685 -0.05261247 0.073486514
